tutorials/02-intermediate/recurrent_neural_network/model.ckpt (torch_old, 858516 bytes, 10 tensors)

lstm.weight_ih_l0 f4 [512, 28]
0	0xbe6c95c5	-0.23104008
1	0xbe07df49	-0.1326877
2	0x3ca82e25	0.020529816
3	0xbe413b68	-0.18870318
4	0xbddade89	-0.106869765
5	0xbe5a15af	-0.21297334
6	0x3daa2c09	0.0830918
7	0x3cf396c2	0.029734973
8	0xbc923b45	-0.017850528
9	0xbe55aab1	-0.20865895
10	0xbd616b5f	-0.055034038
11	0xbdc22a57	-0.09480732
12	0xbcf23eac	-0.0295709
13	0xbe748156	-0.23877463
14	0xbe8336d5	-0.2562777
15	0xbf0736cb	-0.5281798
16	0xbef0cbac	-0.4703039
17	0xbee0fb73	-0.4394184
18	0xbe42b2e8	-0.1901356
19	0xbe548fd1	-0.20757987
20	0xbe87dfab	-0.26537833
21	0xbe0fe913	-0.14053755
22	0xbe30192a	-0.171971
23	0xbe1be0bd	-0.1522245
24	0x3c00b015	0.007854481
25	0x3e86e4c4	0.2634641
26	0x3e89fc21	0.26950172
27	0xbcdf75de	-0.027277883
28	0xbe524970	-0.20535827
29	0x3e68fa4d	0.22751732
30	0x3ddb421d	0.107059695
31	0x3e0cec8c	0.1376211
32	0x3e41e24a	0.18933979
33	0x3e19e252	0.1502774
34	0x3e9cc75f	0.30620858
35	0x3dc5f27e	0.09665392
36	0x3e317d38	0.17332923
37	0x3e6998c4	0.22812182
38	0x3e3b6ecf	0.18303989
39	0x3c877e2f	0.016539661
40	0xbcd70db2	-0.026251648
41	0x3e4e6433	0.2015541
42	0x3e4624a9	0.19349922
43	0x3d0ef233	0.034898948
44	0xbd428fff	-0.047500607
45	0xbf0b82a2	-0.54496205
46	0xbf1d24b2	-0.6138412
47	0xbf1bb100	-0.60816956
48	0xbee80fbf	-0.45324513
49	0xbf3cb42f	-0.7371244
50	0xbf69bd2a	-0.91304266
51	0xbf3ca323	-0.73686427
52	0xbf4154fd	-0.75520307
53	0xbf33b203	-0.701935
54	0xbe8d89d5	-0.2764422
55	0x3e4daaa3	0.20084624
56	0x3d509c97	0.050930586
57	0x3e136a3e	0.14395997
58	0xbde62f73	-0.11239519
59	0xbe19e511	-0.15028788
60	0xbf2f19a8	-0.68398523
61	0xbeae447d	-0.34036627
62	0xbdbfac81	-0.093590744
63	0x3e0d92be	0.13825509
64	0xbead8d69	-0.3389695
65	0xbe9320b3	-0.28735885
66	0x3d82d2fc	0.06387898
67	0xbd91d47d	-0.07120607
68	0x3d2980de	0.041382663
69	0xbe6c3a98	-0.23069227
70	0xbee6038f	-0.4492459
71	0xbe825d3a	-0.2546175
72	0xbd9c565f	-0.076336615
73	0xbe338560	-0.17531347
74	0xbeda5094	-0.426396
75	0xbedad25e	-0.42738622
76	0xbe5a93c9	-0.21345438
77	0xbe805281	-0.25062945
78	0xbe963a7a	-0.2934149
79	0xbd59f4ac	-0.053211853
80	0x3e547cae	0.20750687
81	0x3e0f84e4	0.14015538
82	0xbd20934d	-0.039202977
83	0x3dd9400f	0.10607921
84	0x3e1ebb98	0.15501249
85	0x3c5ede82	0.013602855
86	0x3e03a8f6	0.12857422
87	0xbc94befb	-0.018157473
88	0xbeb1a162	-0.34693438
89	0xbe81652b	-0.25272498
90	0x3d58c9ee	0.05292695
91	0xbde4d1bf	-0.111728184
92	0xbe79c7a6	-0.24392566
93	0xbdc55875	-0.096360125
94	0xbbfda425	-0.007740515
95	0x3e2f26ce	0.17104647
96	0x3de66fd1	0.11251796
97	0x3e65107e	0.22369573
98	0x3e88d4c1	0.26724818
99	0x3d87b125	0.066255845
100	0x3d65196c	0.055932447
101	0xbd91b7b4	-0.07115117
102	0xbc745aeb	-0.014914255
103	0xbe44e918	-0.19229543
104	0xbe6ac0d8	-0.22925127
105	0xbe79bab5	-0.2438763
106	0xbedc2971	-0.43000367
107	0xbf1a7a66	-0.60343015
108	0xbe99b93e	-0.3002414
109	0xbeb24278	-0.34816337
110	0x3e32b848	0.1745311
111	0xbebec2d4	-0.37258017
112	0x3dd972ec	0.10617623
113	0xbe125cf2	-0.14293268
114	0xbaf51449	-0.0018698062
115	0x3df9c3b6	0.12195532
116	0x3e376735	0.17910464
117	0x3e84c4da	0.25931436
118	0x3f15c8fb	0.58509797
119	0x3f051a1b	0.5199296
120	0x3eb230f3	0.3480297
121	0x3d3ad5a8	0.045613915
122	0xbdfd4906	-0.12367444
123	0xbe920736	-0.28521127
124	0xbe64d727	-0.22347699
125	0xbecc528e	-0.39906734
126	0xbed658c4	-0.41864598
127	0xbee99866	-0.45624083
128	0xbee5deb0	-0.4489646
129	0xbeb62238	-0.35572982
130	0xbf0c0b5a	-0.5470482
131	0xbf57a5e7	-0.8423752
132	0xbf3f2493	-0.7466518
133	0xbf04d3b4	-0.51885533
134	0xbf155735	-0.5833619
135	0xbf1d7351	-0.61504084
136	0xbf252fd6	-0.64526117
137	0xbf287cc3	-0.6581537
138	0x3eb49a8b	0.35274157
139	0x3f05679c	0.5211122
140	0xbe1e07c3	-0.15432648
141	0xbe07c099	-0.13257064
142	0xbbb2904a	-0.0054493295
143	0xbd286956	-0.04111608
144	0xbe2d55a1	-0.16927196
145	0xbeaee02f	-0.34155414
146	0xbeefa59f	-0.46806046
147	0xbec05165	-0.375621
148	0xbdd481f5	-0.1037635
149	0x3eec28ce	0.46124882
150	0x3ee3540c	0.4440006
151	0x3eb63fd8	0.35595584
152	0x3ea54ed4	0.32286704
153	0xbda1fedc	-0.07909939
154	0xbf6c77fd	-0.9237059
155	0xbf824d38	-1.0179815
156	0xbe73f4fa	-0.2382392
157	0xbdf0a6fd	-0.117506005
158	0xbe1c3ddf	-0.15257977
159	0xbde230de	-0.11044477
160	0xbd6b543a	-0.05745337
161	0xbdda5f94	-0.10662761
162	0xbe907b3a	-0.28219014
163	0xbf2825eb	-0.6568286
164	0xbf6d7005	-0.92749053
165	0xbf3dd53c	-0.74153495
166	0xbc4f3476	-0.012646785
167	0xbd2fe29f	-0.042940732
168	0x3d96e021	0.07366968
169	0x3b8a6954	0.004223982
170	0x3ee9569f	0.455739
171	0x3ecd569b	0.40105137
172	0xbee0d1b9	-0.43910006
173	0xbee16e93	-0.44029674
174	0xbd9beaf9	-0.07613177
175	0xbdfa11d1	-0.122104295
176	0xbeb47148	-0.35242677
177	0xbe9715a1	-0.2950869
178	0x3dbd4653	0.09241929
179	0xbcad5be1	-0.021161975
180	0x3c53468f	0.01289524
181	0xbe1a0bce	-0.15043566
182	0xbf1ef9d0	-0.62099934
183	0xbf54861d	-0.8301714
184	0xbf9f71bc	-1.2456584
185	0xbfbba7ba	-1.4660561
186	0xbf7fca38	-0.99917936
187	0xbf242eaf	-0.64133734
188	0xbf12dc3f	-0.5736732
189	0xbeb62137	-0.35572216
190	0xbf13364b	-0.5750472
191	0xbf5f5fbf	-0.8725547
192	0xbf50b44c	-0.8152511
193	0xbefb364f	-0.49064872
194	0xbe60aa5f	-0.21939991
195	0x3e116a5b	0.14200728
196	0x3ea52044	0.3225118
197	0x3df5de40	0.120052814
198	0x3dc1e6ab	0.094678245
199	0xbe3bcd17	-0.18339954
200	0xbed32dbd	-0.41245833
201	0xbeb5889e	-0.35455793
202	0xbea0e4ca	-0.31424552
203	0xbebab111	-0.36463216
204	0xbf0886b8	-0.53330564
205	0xbebd10db	-0.36926922
206	0xbea28da7	-0.31748697
207	0xbe48563f	-0.1956415
208	0xbdb85d9f	-0.09002232
209	0xbddd1f92	-0.10797037
210	0xbe8e12e0	-0.27748775
211	0xbeb4bdff	-0.35301206
212	0xbe615dbd	-0.22008415
213	0xbe7332a9	-0.23749794
214	0xbe018ee6	-0.12652168
215	0xbd169923	-0.036767136
216	0xbdafff90	-0.085936666
217	0xbd15a9ce	-0.03653889
218	0xbc2fd709	-0.010732421
219	0xbd2cd7a1	-0.042197827
220	0xbca0e8d2	-0.019642267
221	0xbe8f017d	-0.27930823
222	0xbed3d2ad	-0.4137167
223	0xbf2f34d0	-0.6843996
224	0xbeac46c9	-0.33647755
225	0x3e94c74e	0.29058307
226	0xbd4f0e9d	-0.050551046
227	0xbf3dfddd	-0.7421549
228	0xbe75638b	-0.23963754
229	0x3d20aef6	0.039229356
230	0x3db26053	0.08709779
231	0x3e13259c	0.14369816
232	0x3d7b59b5	0.06136485
233	0xbe449597	-0.19197689
234	0xbef136d1	-0.47112134
235	0xbf17a68e	-0.5923852
236	0xbf45075a	-0.7696434
237	0xbed81111	-0.4220052
238	0x3dcc86f1	0.099866755
239	0x3e2825b3	0.16420631
240	0x3de7d299	0.11319465
241	0xbdda0800	-0.10646057
242	0xbe3f2fdc	-0.186706
243	0xbea45176	-0.320934
244	0xbe9e52e9	-0.3092263
245	0xbe27e19d	-0.16394658
246	0x3a8d9fe5	0.0010805099
247	0xbe0eb30a	-0.13935485
248	0xbdf79947	-0.12089782
249	0xbe984fde	-0.29748434
250	0xbeb3ae22	-0.3509379
251	0xbe0297f2	-0.12753275
252	0xbd95dbd3	-0.07317319
253	0xbd98b882	-0.07457067
254	0x3cf509f9	0.029911982
255	0x3f15b7d9	0.58483654

lstm.weight_hh_l0 f4 [512, 128]
0	0x3d95eca4	0.07320526
1	0x3e940c81	0.2891579
2	0xbe3d5c28	-0.18492186
3	0x3dbf0d57	0.09328716
4	0x3e27937b	0.16364853
5	0xbf1b3fb7	-0.60644096
6	0x3bfc593c	0.0077010673
7	0x3c6a9765	0.014318322
8	0x3e0c360c	0.13692492
9	0x3e06a484	0.13148695
10	0x3e24647c	0.16053957
11	0xbe17a285	-0.1480809
12	0xbcc53da7	-0.02407725
13	0xbd93dfcd	-0.07220421
14	0x3ddef208	0.108860075
15	0x3e944cbc	0.28964794
16	0x3e7fb8e5	0.24972875
17	0xbd71cbf8	-0.05903241
18	0x3eb93c61	0.36178878
19	0xbcdf93c0	-0.027292132
20	0xbe5230a0	-0.20526361
21	0x3b23474e	0.0024914327
22	0x3e02867d	0.12746616
23	0x3ca28be0	0.019842088
24	0x3d8098ef	0.0627917
25	0x3e8d024c	0.27540815
26	0xbe0560c0	-0.13025188
27	0xbb5450b5	-0.0032396738
28	0xbde118e9	-0.10991079
29	0x3e683123	0.22674994
30	0x39d9f6d8	0.00041573378
31	0x3ef7a159	0.48365286
32	0xbcbec7d1	-0.02328864
33	0xbb7f7efd	-0.0038985603
34	0x3dafaa76	0.08577435
35	0xbbf813e9	-0.007570733
36	0x3de8cda9	0.113673516
37	0xbdaec590	-0.08533776
38	0x3ec74209	0.38917568
39	0x3da2d009	0.07949836
40	0xbde00c4f	-0.10939848
41	0x3d9841c9	0.074344225
42	0x3e55f4f4	0.20894223
43	0xbc4cda4f	-0.012503221
44	0xbd837fdf	-0.06420874
45	0xbd218303	-0.039431583
46	0xbc9e82eb	-0.019349536
47	0x3e55b689	0.20870413
48	0x3dc0a628	0.09406692
49	0xbeff17bb	-0.49822792
50	0x3efcb6d6	0.49358243
51	0x3e58ed4c	0.21184272
52	0xbdf27ad6	-0.11839835
53	0xbbb810ae	-0.0056172227
54	0xbdb44caf	-0.08803689
55	0xbdc3e36e	-0.09564863
56	0xbd2c7da4	-0.042112008
57	0xbe5ab31c	-0.21357387
58	0x3e4112be	0.18854806
59	0xbe251586	-0.16121492
60	0xbdc79334	-0.09744874
61	0x3d952102	0.07281686
62	0xbe073a3a	-0.13205805
63	0xbe12a03b	-0.14318936
64	0x3e8c3da2	0.27390772
65	0xbeaccb74	-0.33748972
66	0xbda794c4	-0.08182672
67	0xbea05b41	-0.3131962
68	0xbed409c5	-0.41413704
69	0x3e168b84	0.14701658
70	0x3eb3d3f2	0.3512264
71	0x3eeb283b	0.4592913
72	0xbeee9611	-0.46598867
73	0xbde88ca2	-0.113549486
74	0x3e1954c1	0.14973737
75	0xbe07dad5	-0.13267072
76	0xbe8515e5	-0.25993267
77	0x3e7175c7	0.23580085
78	0xbe904b07	-0.2818224
79	0x3e2d1ece	0.16906282
80	0x3d046944	0.03232695
81	0xbe60647b	-0.2191333
82	0x3e5c41ad	0.21509428
83	0xbe2b92b1	-0.16755177
84	0x3f2f0b90	0.6837702
85	0xbe9f7048	-0.3114035
86	0x3d2d6650	0.0423339
87	0xbd04089e	-0.03223478
88	0x3d3d27c4	0.0461805
89	0x3e8a8193	0.27051982
90	0xbe31c1af	-0.1735904
91	0x3e7a51a5	0.24445207
92	0x3c0513cd	0.008122397
93	0xbde5823f	-0.11206483
94	0xbe49e297	-0.19715343
95	0xbcb3ae25	-0.021933625
96	0xbc8ef878	-0.017452464
97	0x3d7ce8cb	0.061745446
98	0xbd363947	-0.044488218
99	0xbdb732dc	-0.089452475
100	0x3e0b6f15	0.13616593
101	0x3e618c14	0.22026092
102	0x3e350819	0.1767887
103	0x3e7873df	0.24262951
104	0x3e3c28e2	0.1837497
105	0x3d246ddd	0.040143836
106	0xbe8a31d4	-0.2699114
107	0xbe3f45a9	-0.18678917
108	0x3ec72c2f	0.38900897
109	0xbeaf0ee7	-0.34191057
110	0x3d24635d	0.040133823
111	0x3b0f7c95	0.0021894325
112	0xbe2d97b7	-0.16952406
113	0x3d82b1db	0.063815795
114	0xbec828b0	-0.39093542
115	0x3d82effc	0.0639343
116	0x3f0c9b34	0.5492432
117	0xbe0d5529	-0.13802017
118	0x3e6a9b12	0.22910717
119	0xbd9807dc	-0.07423374
120	0xbec38b6e	-0.38192314
121	0x3dc60581	0.096690185
122	0x3de1f2c6	0.110326335
123	0xbe049344	-0.12946802
124	0x3bf28519	0.0074011204
125	0xbe1dcc54	-0.15409976
126	0xbec68a20	-0.38777256
127	0x3e99b9b1	0.30024484
128	0x3e3b1e00	0.18273163
129	0xbc420228	-0.011841334
130	0xbd8481dd	-0.06470082
131	0xbe7618a7	-0.24032842
132	0xbef031f7	-0.4691312
133	0xbe446b14	-0.19181472
134	0xbd9010ff	-0.07034492
135	0xbe39f780	-0.1816082
136	0x3eb9e7f2	0.36309773
137	0xbd8162df	-0.06317686
138	0x3de0c623	0.109752916
139	0xbe1ba84f	-0.15200923
140	0x3d537d95	0.051633436
141	0xbe0ad052	-0.1355603
142	0xbea280fe	-0.31739038
143	0x3e852ec5	0.26012245
144	0xbec6d947	-0.38837644
145	0x3ecc50af	0.39905307
146	0x3e7ceff0	0.24700904
147	0xbd724650	-0.059149086
148	0x3e31e5b2	0.17372778
149	0x3e61f109	0.22064604
150	0xbea298fc	-0.31757343
151	0xbc06da28	-0.008230723
152	0xbe5c2ee1	-0.21502258
153	0xbea68849	-0.32525852
154	0xbeee8838	-0.46588302
155	0x3db65ce6	0.08904438
156	0x3e3cc098	0.18432844
157	0xbf1647a6	-0.58703077
158	0x3bf95f68	0.0076102503
159	0x3d904ab2	0.07045497
160	0xbea0e902	-0.3142777
161	0x3eeab3e8	0.45840383
162	0xbd1a646f	-0.037693437
163	0xbe413674	-0.18868428
164	0x3e0e67b9	0.13906755
165	0xb8d2ffef	-0.00010061252
166	0xbce4e48b	-0.027941009
167	0x3bba65b3	0.005688393
168	0xbe59a48e	-0.21254179
169	0xbf246074	-0.64209676
170	0x3e57d118	0.21075857
171	0x3e3a9a5e	0.18222949
172	0xbde1a8be	-0.11018513
173	0xbf03fa54	-0.51553845
174	0xbca34cab	-0.01993402
175	0x3d5a1940	0.053246737
176	0x3eca90f8	0.39563727
177	0xbdbfa5c7	-0.093577914
178	0xbda3c6d0	-0.07996905
179	0x3e85d507	0.2613909
180	0x3d118693	0.03552873
181	0x3e37d890	0.17953706
182	0x3dd7e63f	0.10541963
183	0x3e8bc362	0.27297503
184	0xbd6e5a1b	-0.0581914
185	0x3e3a23fe	0.18177792
186	0xbe5f6662	-0.218164
187	0x3e1a187f	0.15048407
188	0x3df68441	0.12036944
189	0x3d62c41d	0.05536281
190	0x3f3efee3	0.74607676
191	0x3f01bd81	0.50679785
192	0x3f29af29	0.662829
193	0xbdd50362	-0.10401036
194	0x3e936cd4	0.28793967
195	0xbf107e23	-0.5644247
196	0x3e333f97	0.17504726
197	0xbe4c2712	-0.19936779
198	0x3d143feb	0.03619377
199	0x3cd872af	0.026421873
200	0x39c493ed	0.00037494246
201	0xbdf1802e	-0.117920265
202	0x3e1e553a	0.15462199
203	0xbe94a67f	-0.29033276
204	0xbd7e03f8	-0.062015504
205	0xbf35773b	-0.70885056
206	0x3dc9c6f7	0.09852403
207	0x3f4ba1de	0.79543865
208	0xbd1c1827	-0.03810897
209	0x3eb0d763	0.34539327
210	0x3dc41dec	0.0957602
211	0xbd0fdc14	-0.035121992
212	0xbe715340	-0.23566914
213	0xbf167fb7	-0.5878863
214	0xbe11ce96	-0.14238963
215	0x3f110c51	0.5665942
216	0xbe807ecc	-0.25096738
217	0xbdeca42f	-0.11554753
218	0xbe3f12c1	-0.18659498
219	0x3e7d0dfe	0.24712369
220	0xbe9d492e	-0.30719894
221	0xbd9fc3d9	-0.07801027
222	0x3d793278	0.060839146
223	0xbe0940a9	-0.13403572
224	0xbea9d61b	-0.33171162
225	0xbeb990d1	-0.362433
226	0x3e8e1c94	0.27756178
227	0x3e05207d	0.13000675
228	0xbecb6d2c	-0.3973173
229	0x3e78dbd5	0.2430261
230	0x3e6fe15d	0.23425813
231	0x3cc270c8	0.023735419
232	0x3cec393f	0.02883589
233	0x3e8a0026	0.26953238
234	0x3e151e1e	0.1456227
235	0xbd93cfdd	-0.07217381
236	0xbe26bf8a	-0.16284004
237	0xbec87747	-0.391535
238	0xbe117def	-0.14208196
239	0xbd7b20b3	-0.06131048
240	0x3ea27c58	0.31735492
241	0x3dbb6f50	0.091520905
242	0x3ee269f6	0.44221467
243	0xbdba096d	-0.09083829
244	0x3db7f3a8	0.089820206
245	0xbb924a7d	-0.004464446
246	0xbe7ef3bf	-0.2489767
247	0xbe534143	-0.20630364
248	0x3ce89fc8	0.028396502
249	0x3e4175d2	0.18892601
250	0xbe0c52f3	-0.13703518
251	0xbef2ba3c	-0.4740771
252	0x3e62670c	0.22109622
253	0xbd7eb36e	-0.062182836
254	0xbe6af09a	-0.22943345
255	0x3e738aaf	0.23783372

lstm.bias_ih_l0 f4 [512]
0	0xbee19b24	-0.44063675
1	0xbe8e4830	-0.2778945
2	0xbdd0d279	-0.101963945
3	0xbea92705	-0.33037582
4	0xbe97eccb	-0.29672846
5	0x3ebe49cb	0.37165675
6	0xbe991dc2	-0.29905516
7	0xbe169524	-0.1470533
8	0xbe995473	-0.29947242
9	0xbe9c1ae0	-0.30489254
10	0xbeb4ced5	-0.3531405
11	0xbe8fae1f	-0.2806253
12	0xbef40a22	-0.4766398
13	0xbeb27960	-0.34858227
14	0xbeb51848	-0.35370088
15	0xbe2dad01	-0.16960527
16	0xbed8ca09	-0.4234164
17	0xbe5ff318	-0.21870077
18	0xbdb1e654	-0.0868651
19	0xbef3a895	-0.47589555
20	0xbeb81802	-0.35955817
21	0xbef639e3	-0.4809104
22	0xbef76e78	-0.48326468
23	0xbea84ff5	-0.32873502
24	0xbe3a494e	-0.18192026
25	0xbf0341a1	-0.51272017
26	0xbe9a225a	-0.30104333
27	0xbe7e396d	-0.24826594
28	0xbec88630	-0.39164877
29	0xbee93f27	-0.45555994
30	0xbee04b99	-0.43807676
31	0xbd898d46	-0.06716399
32	0xbdb326de	-0.08747648
33	0x3c3dbb6b	0.011580328
34	0xbea9a3c8	-0.33132768
35	0xbeb34103	-0.35010538
36	0xbddb5e6c	-0.10711369
37	0xbeba5b02	-0.36397558
38	0xbebfcb11	-0.37459615
39	0x3e05f742	0.13082603
40	0xbdc16728	-0.094435036
41	0xbe9a2637	-0.3010728
42	0xbefc8fde	-0.49328512
43	0xbe0b2161	-0.13586952
44	0xbe85fcc0	-0.26169395
45	0xbe439c81	-0.1910267
46	0xbeb7a1a4	-0.3586551
47	0xbe34952a	-0.17635027
48	0xbea20a08	-0.31648278
49	0xbe46005b	-0.19336073
50	0xbe8413ff	-0.25796506
51	0xbe874aca	-0.26424247
52	0xbe27e809	-0.16397108
53	0xbf01c8bd	-0.5069693
54	0xbe182210	-0.14856744
55	0x3dfbabaa	0.12288602
56	0xbede56ba	-0.43425542
57	0xbe8cad12	-0.27475792
58	0xbe408a5b	-0.18802778
59	0x3dba9bbd	0.09111736
60	0xbf1339dc	-0.5751016
61	0xbedbf6f9	-0.42961863
62	0xbec09cf8	-0.37619758
63	0xbf00db09	-0.5033422
64	0xbe7c04d7	-0.24611221
65	0xbec9b163	-0.39393148
66	0xbe6054ca	-0.21907344
67	0xbcee7002	-0.029106144
68	0xbe3e66e3	-0.18593936
69	0xbe9d8c78	-0.30771232
70	0xbe487bec	-0.19578522
71	0xbe69f478	-0.22847164
72	0xbe8afd1e	-0.27146238
73	0xbf0c353b	-0.54768723
74	0xbe542ee0	-0.20721006
75	0xbe38c4ed	-0.18043871
76	0xbd6cd74f	-0.05782252
77	0xbe81c47e	-0.25345224
78	0xbe421098	-0.18951643
79	0xbe363df6	-0.17797074
80	0xbeb8116c	-0.35950792
81	0xbe028842	-0.1274729
82	0xbea75e61	-0.32689193
83	0xbe674a37	-0.22586904
84	0xbda0cec3	-0.07851937
85	0xbe2ebed9	-0.1706499
86	0xbe197cdd	-0.14989038
87	0xbe4445f9	-0.19167317
88	0xbe80010d	-0.25000802
89	0xbed72725	-0.42022052
90	0xbe64ac99	-0.22331466
91	0xbe15af00	-0.14617538
92	0xbf090a00	-0.53530884
93	0xbeda3bb9	-0.4262369
94	0xbe6049ed	-0.219032
95	0xbefb3e12	-0.49070793
96	0xbea7270c	-0.32646978
97	0xbee624aa	-0.44949847
98	0xbea92d0e	-0.33042186
99	0xbe879f7b	-0.2648886
100	0xbea7f7cb	-0.3280624
101	0xbeb0113f	-0.34388158
102	0xbec49c7e	-0.38400644
103	0xbeeeeec0	-0.46666527
104	0xbeb98af6	-0.3623883
105	0xbe9d322c	-0.3070234
106	0xbec1a6d9	-0.37822607
107	0xbec5099f	-0.38483903
108	0xbef99a23	-0.4875041
109	0xbe1ad9fd	-0.15122218
110	0xbeaa8fef	-0.33312938
111	0xbf163e4e	-0.5868882
112	0xbea5ff78	-0.3242147
113	0xbee446dd	-0.44585314
114	0xbec5a14f	-0.3859963
115	0xbe820e74	-0.25401652
116	0xbed6debc	-0.41966808
117	0xbf0069dc	-0.5016153
118	0xbec2ae5b	-0.38023648
119	0xbf010e6e	-0.5041264
120	0xbe1d40df	-0.15356778
121	0xbea14780	-0.31499863
122	0xbeb379cf	-0.3505387
123	0xbe859623	-0.26091108
124	0xbe993730	-0.29924917
125	0xbebe5f9d	-0.37182322
126	0xbe0af3f3	-0.13569622
127	0xbdec3193	-0.11532893
128	0xbe90d76a	-0.28289348
129	0xbe62169e	-0.2207894
130	0xbea84aef	-0.3286967
131	0x3b1df564	0.0024102563
132	0xbf0b7742	-0.5447885
133	0xbe245308	-0.16047299
134	0xbeecdda6	-0.46262854
135	0xbe1ca4f0	-0.15297294
136	0xbce6f70d	-0.028193975
137	0xbee50265	-0.4472839
138	0xbe7fdb1a	-0.24985924
139	0x3e0131f0	0.12616706
140	0xbe750968	-0.2392937
141	0x3e34fb21	0.17673923
142	0x3d1a8f40	0.03773427
143	0x3e92da70	0.2868228
144	0x3d2076a4	0.039175645
145	0xbe19e600	-0.15029144
146	0x3df78945	0.12086729
147	0xbe8850b2	-0.26624066
148	0xbde0b8b1	-0.10972727
149	0xbdd28094	-0.102784306
150	0xbe526e2c	-0.2054984
151	0x3d7e5110	0.062089026
152	0x3c5c59a2	0.0134491045
153	0xbd87f463	-0.0663841
154	0xbe7a8bdf	-0.24467419
155	0xbe457c7d	-0.1928577
156	0xbd2e4656	-0.042547546
157	0xbe73b51d	-0.23799558
158	0xbd673592	-0.056447573
159	0xbec8ce00	-0.39219666
160	0x3d01358b	0.031545203
161	0xbe5bcede	-0.21465632
162	0xbe82dc87	-0.25558874
163	0xbb745682	-0.0037283008
164	0xbe0e71f1	-0.13910653
165	0x3e5c8951	0.21536757
166	0x3db60096	0.088868305
167	0x3d3fd60d	0.046834994
168	0xbe73323b	-0.2374963
169	0xbe1dd728	-0.15414107
170	0xbde6dbae	-0.11272369
171	0xbe973b31	-0.29537347
172	0x3e0a68b3	0.13516502
173	0xbe303c98	-0.17210615
174	0xbe480e1b	-0.19536631
175	0xbd7ec1f2	-0.06219668
176	0xbc21c509	-0.009873637
177	0xbda12d3d	-0.07869957
178	0xbe951bde	-0.29122823
179	0x3ce8642b	0.028368076
180	0x3e0b8578	0.13625133
181	0x3e58675c	0.21133178
182	0xbedfdbc2	-0.4372235
183	0xbca6e71e	-0.020373877
184	0x3c635e97	0.013877532
185	0x3d4bc247	0.049745824
186	0x3e3f8d1b	0.18706171
187	0xbe1679ec	-0.14694947
188	0x3e54d67b	0.20784943
189	0xbe24ed5d	-0.16106172
190	0xbe02eddc	-0.12786049
191	0xbeb306b3	-0.3496605
192	0xbe3aff0c	-0.18261355
193	0xbe687f17	-0.22704731
194	0xbde97eea	-0.1140116
195	0x3dc35545	0.09537748
196	0xbdd031dd	-0.10165761
197	0xbe0e5a8a	-0.13901725
198	0x3e029a4c	0.12754172
199	0x3dce47f3	0.10072317
200	0xbda598e2	-0.08085801
201	0x3d296da5	0.04136433
202	0xbe9d2d79	-0.30698755
203	0xbd356c00	-0.04429245
204	0x3e0ee5da	0.13954869
205	0xbe137d6d	-0.14403315
206	0xbe62c0cb	-0.22143857
207	0xbdcf2a80	-0.10115528
208	0xbd0d4bab	-0.03449599
209	0xbea1b717	-0.31585
210	0xbd985d4f	-0.07439672
211	0x3de724b3	0.11286297
212	0xbd8d4ba7	-0.06899195
213	0x3df43e1d	0.1192591
214	0xbe0a9df5	-0.13536818
215	0xbd99b4d3	-0.075051926
216	0xbe62acb0	-0.22136188
217	0xbed13ad2	-0.4086519
218	0xbcff5c21	-0.03117186
219	0xbe0c16a9	-0.13680519
220	0xbdaf1791	-0.08549417
221	0xbe986aae	-0.2976889
222	0xbd573ae6	-0.052546404
223	0xbc2994bc	-0.010350402
224	0x3e6c4508	0.23073208
225	0xbceebee8	-0.029143766
226	0xbdefeeb7	-0.11715453
227	0xbca70d55	-0.0203921
228	0xbe35edba	-0.17766467
229	0xbe51e3ec	-0.20497102
230	0x3e5ada51	0.21372344
231	0xbec0a9f6	-0.3762967
232	0xbda551a6	-0.08072214
233	0x3d6b43a6	0.05743756
234	0xbeec1aa3	-0.46114072
235	0xbe2622c6	-0.16224203
236	0xbe1f91f9	-0.15583028
237	0xbe99f82b	-0.3007215
238	0xbd828dce	-0.06374703
239	0x3c90f3b2	0.017694328
240	0xbec2812b	-0.37989172
241	0xbde7ab46	-0.11311965
242	0xbe4d7661	-0.20064689
243	0xbdad99db	-0.08476611
244	0xbdea01d7	-0.11426132
245	0xbf007461	-0.5017758
246	0x3ec7c626	0.39018363
247	0xbaeec89a	-0.0018217743
248	0xbdf53d45	-0.11974577
249	0xbd55997d	-0.05214833
250	0xbe3163b4	-0.1732319
251	0xbf0d9a79	-0.5531383
252	0x3c9d4b74	0.019201018
253	0xbe7451d8	-0.23859346
254	0xbe547a65	-0.20749815
255	0xbda7f7ac	-0.082015365

lstm.bias_hh_l0 f4 [512]
0	0xbef1c6ca	-0.47221977
1	0xbe5bfe27	-0.2148367
2	0xbd5cbd36	-0.053891383
3	0xbe936c46	-0.28793544
4	0xbe8ad54b	-0.27115855
5	0x3ee6f986	0.45112246
6	0xbec1174c	-0.37713087
7	0xbd95157f	-0.07279491
8	0xbed53fa4	-0.41650116
9	0xbeb7c461	-0.35892013
10	0xbebd0adf	-0.36922356
11	0xbe54f3b1	-0.20796086
12	0xbec8b0da	-0.39197427
13	0xbee8f0bd	-0.4549617
14	0xbec3893b	-0.38190636
15	0xbdfebb1c	-0.12438032
16	0xbed9b2c4	-0.425192
17	0xbdf0385e	-0.11729501
18	0xbe2cb8dc	-0.16867393
19	0xbec0f1bb	-0.37684426
20	0xbebabc83	-0.36471948
21	0xbeccd860	-0.4000883
22	0xbebe01a8	-0.3711064
23	0xbee7bd42	-0.4526158
24	0xbdd4383c	-0.10362288
25	0xbf013605	-0.5047305
26	0xbea35ca4	-0.31906617
27	0xbe776a52	-0.24161652
28	0xbe8bd3fd	-0.27310172
29	0xbef926f3	-0.48662528
30	0xbea461e6	-0.3210594
31	0xbdbe016d	-0.09277616
32	0xbe3c50b8	-0.18390167
33	0xbbc34898	-0.0059595816
34	0xbe8acf68	-0.27111363
35	0xbea12a2a	-0.3147748
36	0xbd9aa0f1	-0.075502284
37	0xbec762a7	-0.38942453
38	0xbecc4e67	-0.39903566
39	0x3dcff421	0.10153986
40	0xbe0e819f	-0.13916634
41	0xbebdf916	-0.371041
42	0xbef25020	-0.47326756
43	0xbdf4e76b	-0.11958202
44	0xbdfd5a75	-0.12370769
45	0xbe658975	-0.22415717
46	0xbe98aaa8	-0.298177
47	0xbe86a870	-0.26300383
48	0xbe966154	-0.2937113
49	0xbe248817	-0.16067539
50	0xbe6f6e10	-0.2338183
51	0xbe748e3a	-0.2388238
52	0xbdaeaf55	-0.08529536
53	0xbf0b443b	-0.54400986
54	0xbe2ae8a4	-0.16690308
55	0x3d4938f0	0.049126565
56	0xbef28372	-0.4736591
57	0xbec7f47c	-0.39053714
58	0xbe35798a	-0.17722145
59	0x3d909785	0.0706015
60	0xbf09f670	-0.5389166
61	0xbf0e6430	-0.55621624
62	0xbe772c9a	-0.24138108
63	0xbefc8053	-0.49316654
64	0xbe67fa41	-0.22654058
65	0xbeeb15e8	-0.4591515
66	0xbe9869a0	-0.29768085
67	0x3d216649	0.039404187
68	0xbe57186a	-0.21005407
69	0xbe61bd72	-0.22044924
70	0xbe44d8b9	-0.19223298
71	0xbe070467	-0.13185273
72	0xbea3a28c	-0.3195995
73	0xbee38ed8	-0.4444492
74	0xbe2a4449	-0.16627611
75	0xbe3837f3	-0.17990093
76	0xbe237dc6	-0.15965948
77	0xbe892d2e	-0.26792282
78	0xbe5f8d38	-0.21831214
79	0xbd91b9bd	-0.07115505
80	0xbea94653	-0.33061466
81	0xbdbb501d	-0.0914614
82	0xbeadaa8a	-0.33919173
83	0xbe019999	-0.12656249
84	0xbe3d7c26	-0.1850439
85	0xbe5200f2	-0.20508173
86	0xbd9124e2	-0.07087113
87	0xbe96a985	-0.29426208
88	0xbec39dd9	-0.38206366
89	0xbecbe905	-0.39826217
90	0xbe8168a7	-0.25275156
91	0xbe1f26ab	-0.15542094
92	0xbec3e9ed	-0.3826441
93	0xbec63143	-0.3870946
94	0xbe1b0883	-0.15139966
95	0xbea7eb02	-0.32796484
96	0xbe6a6bb2	-0.22892645
97	0xbeccc670	-0.39995146
98	0xbe4e1ed5	-0.20128949
99	0xbe62304b	-0.22088735
100	0xbe86e176	-0.26343888
101	0xbedec0fd	-0.43506613
102	0xbeaf0b84	-0.34188473
103	0xbeeacb6a	-0.45858318
104	0xbebad78d	-0.36492577
105	0xbe9dca52	-0.3081842
106	0xbe9e72f4	-0.30947077
107	0xbea5c072	-0.32373387
108	0xbec84e9c	-0.39122474
109	0xbdfb2cce	-0.12264405
110	0xbe9108d9	-0.28327063
111	0xbf013fc4	-0.50487924
112	0xbea34f96	-0.31896657
113	0xbeb02212	-0.34400994
114	0xbeca39cf	-0.3949723
115	0xbebcd36a	-0.36880046
116	0xbea0242e	-0.31277603
117	0xbf1ccead	-0.6125286
118	0xbeaf628d	-0.34254876
119	0xbf0408a5	-0.5157569
120	0xbe9ec8b2	-0.31012493
121	0xbe9fb39a	-0.31191713
122	0xbee9b0b5	-0.4564263
123	0xbe9abc41	-0.3022175
124	0xbe96530c	-0.29360235
125	0xbec4c912	-0.38434654
126	0xbdea77bd	-0.114486195
127	0xbe7670a2	-0.24066404
128	0xbe8dff56	-0.27733868
129	0xbe3e060e	-0.18556997
130	0xbe9ee3e6	-0.31033248
131	0xbbb98f64	-0.0056628454
132	0xbefe889a	-0.49713594
133	0xbe92df22	-0.28685862
134	0xbed033e3	-0.40664586
135	0xbceb2c1e	-0.02870756
136	0xbe142db7	-0.14470564
137	0xbeb8864f	-0.3603997
138	0xbea2fc12	-0.3183294
139	0x3df67545	0.12034086
140	0xbe841074	-0.25793803
141	0x3d9af46c	0.07566151
142	0xbda32d98	-0.07967681
143	0x3e8f8e07	0.28038046
144	0x3df05f4a	0.11736925
145	0xbe479799	-0.19491424
146	0x3d584b50	0.0528062
147	0xbe813af2	-0.25240284
148	0xbe155a68	-0.14585268
149	0xbdccc762	-0.09998967
150	0xbead364c	-0.33830488
151	0x3e08c640	0.13356876
152	0xbdfbf07c	-0.12301728
153	0xbd9cecc4	-0.07662347
154	0xbe64d187	-0.22345553
155	0xbe5c1e96	-0.21496043
156	0xbdd6e0dc	-0.10492107
157	0xbd9d6e88	-0.07687098
158	0xbe00861e	-0.12551162
159	0xbeb3cf0d	-0.35118905
160	0xbce3d2f3	-0.02781055
161	0xbe7d0964	-0.24710613
162	0xbe80dd1c	-0.25168693
163	0x3d1c4e56	0.038160644
164	0xbcebd92c	-0.028790079
165	0x3e2c734b	0.16840856
166	0x3e48a46b	0.1959397
167	0x3dc37aad	0.09544883
168	0xbdccd115	-0.10000817
169	0xbe4adb00	-0.19810104
170	0xbd66d721	-0.056357507
171	0xbe0f725f	-0.14008473
172	0x3e414374	0.18873388
173	0xbe2a7b8b	-0.1664869
174	0xbe53acd2	-0.20671394
175	0xbe12b942	-0.14328483
176	0x3c1d2563	0.009591433
177	0x3c030541	0.007996858
178	0xbe1cb59f	-0.15303658
179	0x3cbd4532	0.023104284
180	0x3dbaca49	0.09120614
181	0x3de03ef7	0.109495096
182	0xbeb21106	-0.34778613
183	0x3d89ea16	0.067341015
184	0x3d508041	0.050903562
185	0x3e419e5d	0.18908067
186	0x3e0375a1	0.1283784
187	0xbe9457ea	-0.28973323
188	0x3e7c7269	0.24653019
189	0xbe0b75f3	-0.13619213
190	0xbdbd2abf	-0.09236669
191	0xbea85c85	-0.32883087
192	0xbe4f746d	-0.20259257
193	0xbe646f8c	-0.22308177
194	0x3c8efa11	0.017453225
195	0x3cd78577	0.026308758
196	0xbdc1eb0f	-0.09468662
197	0xbe8fa61c	-0.2805642
198	0x3c599fd8	0.013282739
199	0x3e04ee9d	0.12981649
200	0xbe15dbdd	-0.14634652
201	0x3dae92d9	0.08524103
202	0xbed55118	-0.41663432
203	0xbe0909bd	-0.13382621
204	0x3e03237e	0.12806508
205	0xbe6a6fa4	-0.2289415
206	0xbe63b50f	-0.22237037
207	0xbda31284	-0.07962516
208	0xbd637ec9	-0.055540834
209	0xbeeb2733	-0.45928344
210	0xbdbeed09	-0.093225546
211	0x3e157890	0.14596772
212	0xbdf421d3	-0.11920514
213	0x3db6aa9a	0.089192584
214	0xbe545e2b	-0.20739047
215	0x3d4e995e	0.05043923
216	0xbe71c62b	-0.23610751
217	0xbef02406	-0.46902484
218	0xbc855d18	-0.016279742
219	0xbe12aed3	-0.14324503
220	0xbdcfdec2	-0.101499096
221	0xbe4b1168	-0.19830859
222	0x3cb0c0dd	0.02157634
223	0xbd6f3dd2	-0.058408566
224	0x3e8a6208	0.27027917
225	0x3d3810b0	0.04493779
226	0xbd810151	-0.06299079
227	0xbd12aee6	-0.035811327
228	0xbcd285b0	-0.025698513
229	0xbe2e977b	-0.17049973
230	0x3e421198	0.18952024
231	0xbedd65eb	-0.4324182
232	0x3d816ff1	0.06320179
233	0x3e148947	0.14505492
234	0xbecaf757	-0.3964183
235	0xbde4d0be	-0.11172627
236	0xbe5688db	-0.20950644
237	0xbea8515b	-0.3287457
238	0x3d7ad0c6	0.061234258
239	0xbdb59a8f	-0.0886737
240	0xbea30323	-0.3183833
241	0xbd94a764	-0.0725849
242	0xbe27950a	-0.16365448
243	0xbd46548d	-0.048420478
244	0xbe60f52e	-0.21968529
245	0xbf047eb5	-0.5175584
246	0x3ea8156f	0.32828853
247	0x3bdcecc5	0.0067420923
248	0xbd4304b7	-0.04761192
249	0xbd4f0772	-0.05054421
250	0xbe2c83d4	-0.16847163
251	0xbf14bfd9	-0.58105236
252	0xbda740b4	-0.08166638
253	0xbe9c1911	-0.30487874
254	0xbe03cc62	-0.12870935
255	0xbe1fd404	-0.15608221

lstm.weight_ih_l1 f4 [512, 128]
0	0xbe41391e	-0.18869445
1	0x3e829105	0.25501266
2	0x3eb0989f	0.3449144
3	0x3ecfed48	0.4061072
4	0x3f594635	0.8487275
5	0xbe86dffc	-0.26342762
6	0x3e5c8536	0.21535191
7	0x3ed02be7	0.40658495
8	0x3e18b4d9	0.14912738
9	0x3e865444	0.26236165
10	0xbdee46a2	-0.11634566
11	0x3ec1e0fe	0.37866968
12	0xbf0ad984	-0.5423815
13	0xbe358247	-0.17725478
14	0x3b1491d6	0.0022669933
15	0xbdf2fd27	-0.11864691
16	0x3f4c40da	0.79786456
17	0xbef31b2c	-0.47481668
18	0x3f2ddbf7	0.67913765
19	0x3e9ad7cb	0.30242762
20	0xbe49f639	-0.19722833
21	0xbec9c86f	-0.3941073
22	0x3dd624fb	0.10456272
23	0x3e2229e9	0.158363
24	0xbde6a762	-0.112623945
25	0x3eafc2a4	0.34328187
26	0xbe90383a	-0.28167897
27	0x3f4664bb	0.7749745
28	0xbe10e420	-0.14149523
29	0x3ef6a28c	0.48170888
30	0x3e9d1b89	0.3068507
31	0xbec720fb	-0.3889235
32	0xbeb9ec1e	-0.36312956
33	0x3ec10dc1	0.37705806
34	0xbf07b383	-0.5300829
35	0x3c2a457a	0.010392541
36	0x3f67ff0c	0.90623546
37	0x3f17bf00	0.5927582
38	0x3ec9b820	0.3939829
39	0xbf01f7f7	-0.5076899
40	0x3e841b1f	0.25801942
41	0x3a01ba29	0.00049486995
42	0x3e19ce07	0.1502
43	0xbea3c021	-0.3198252
44	0xbf25c519	-0.6475387
45	0x3e81a6a3	0.25322446
46	0xbe3ab8ad	-0.1823451
47	0xbec604e5	-0.3867561
48	0xbe8e04b9	-0.27737978
49	0xbe2c7748	-0.16842377
50	0x3e131b07	0.14365779
51	0x3e2a04ad	0.16603346
52	0xbf10d627	-0.5657677
53	0xbda37ab6	-0.0798239
54	0x3ea866fb	0.32891068
55	0x3ecad3cc	0.39614713
56	0x3d7b2805	0.061317462
57	0xbe5721b9	-0.21008958
58	0x3c859002	0.01630402
59	0x3deba88d	0.11506758
60	0xbdd8542b	-0.10562929
61	0x3e4efa1d	0.20212598
62	0xbd853734	-0.0650467
63	0xbf158050	-0.58398914
64	0x3f052eea	0.5202471
65	0xbe511a4d	-0.20420189
66	0xbecc56e5	-0.39910045
67	0xbe874bff	-0.26425168
68	0xbd07f758	-0.03319487
69	0x3e9957ed	0.29949895
70	0x3ede03c6	0.43362254
71	0xbdfe4e6d	-0.12417302
72	0xbf0a9dcd	-0.54147035
73	0xbe486422	-0.19569448
74	0xbf03fc17	-0.51556534
75	0x3dd1548b	0.102212034
76	0xbe4034d9	-0.1877016
77	0x3ed9603b	0.4245623
78	0xbef410f2	-0.47669178
79	0xbd1a9fe4	-0.03775014
80	0x3f2b8f8c	0.6701591
81	0x3ec996e8	0.39372945
82	0xbe25e953	-0.16202287
83	0xbedb7306	-0.42861193
84	0x3e89dcf8	0.26926398
85	0xbeeabcd7	-0.45847198
86	0x3f17a4e2	0.59235966
87	0xbe05f20a	-0.13080612
88	0xbe19dfa5	-0.1502672
89	0x3e9a9740	0.3019352
90	0x3f3e36c3	0.7430231
91	0x3e942070	0.28930998
92	0xbf669be0	-0.90081596
93	0xbebaad9d	-0.3646058
94	0xbe583622	-0.211144
95	0xbecfea69	-0.40608528
96	0x3e234951	0.15945937
97	0xbe389c30	-0.18028331
98	0x3e9a6d6e	0.30161613
99	0x3f681500	0.90657043
100	0xbef04ba8	-0.4693272
101	0xbda40d96	-0.08010404
102	0xbe9436d2	-0.28948075
103	0x3dd831c6	0.105563685
104	0x3e7483cf	0.23878406
105	0xbed3dc33	-0.41378936
106	0xbea0022c	-0.31251657
107	0x3eca0d0f	0.39463088
108	0xbe82b749	-0.2553046
109	0x3ed0ef87	0.40807745
110	0x3f00fc5b	0.50385064
111	0x3e7f35cb	0.24922864
112	0xbf2d45d2	-0.6768466
113	0xbe6d1c12	-0.23155239
114	0x3df60aeb	0.12013801
115	0x3e30f8de	0.17282435
116	0x3f0be6e3	0.5464918
117	0x3f49d0fe	0.7883452
118	0x3cf9505e	0.03043383
119	0x3f0e112d	0.5549496
120	0xbea951ee	-0.3307032
121	0xbcff5072	-0.031166289
122	0x3ebaa8af	0.3645682
123	0x3e34e819	0.17666663
124	0x3ece324a	0.40272743
125	0xbf1053ca	-0.5637785
126	0x3ca820e5	0.020523498
127	0x3ec6130a	0.386864
128	0x3eb09923	0.34491834
129	0xbe3c7776	-0.18404946
130	0xbef24036	-0.47314614
131	0x3ef3e20b	0.47633395
132	0xbec058fd	-0.37567893
133	0x3d81548f	0.063149564
134	0x3e598e6f	0.2124574
135	0xbe3e8041	-0.18603612
136	0xbd4c9ffc	-0.04995726
137	0x3e90076f	0.2813067
138	0x3e71b6e5	0.23604925
139	0x3e6662df	0.22498654
140	0xbe80189e	-0.2501878
141	0x3e65fe83	0.2246037
142	0x3e2b2f21	0.16717197
143	0xbf19f28d	-0.6013573
144	0xbed5a87b	-0.41730103
145	0x3e06524e	0.13117334
146	0xbcf320fc	-0.029678814
147	0x3d1b9ae6	0.03798952
148	0xbe9c4a1d	-0.30525294
149	0x3d36242d	0.044468094
150	0x3e873a25	0.26411548
151	0x3e939111	0.28821614
152	0x3ec4dc96	0.38449544
153	0xbd96b46a	-0.0735863
154	0x3d83d549	0.06437165
155	0xbeb18df1	-0.34678605
156	0xbae77b4b	-0.0017660646
157	0xbdba1e70	-0.09087837
158	0xbf052fc2	-0.52026
159	0x3de714a8	0.11283237
160	0x3de02cc0	0.109460354
161	0x3b1d15a9	0.002396921
162	0x3e04fb9e	0.1298661
163	0x3ecbe17c	0.39820468
164	0xbe0de6fe	-0.13857648
165	0xbf033322	-0.512499
166	0x3e5d5667	0.21614991
167	0x3ecc9d55	0.39963785
168	0x3e0508a4	0.12991577
169	0x3e12b454	0.14326602
170	0x3d2aba19	0.041681383
171	0x3d80986a	0.06279071
172	0x3ebd1df9	0.3693693
173	0x3e7c9424	0.24665886
174	0x3eb35d5d	0.35032168
175	0x3e427d22	0.18993047
176	0x3ed18c12	0.40927178
177	0xbda811bf	-0.0820651
178	0xbe0d0b61	-0.13773872
179	0xbea4e22b	-0.32203802
180	0xbf2a16ea	-0.66441214
181	0xbe8f9b11	-0.28047994
182	0x3ec21884	0.3790933
183	0x3d90636e	0.07050215
184	0x3ec6d5b3	0.38834915
185	0x3e05ec18	0.13078344
186	0x3d057f13	0.03259189
187	0xbd6b4847	-0.057441976
188	0x3eb3e2db	0.35134014
189	0xbef83f40	-0.48485756
190	0x3d40ae8b	0.047041457
191	0x3ba257b5	0.004954303
192	0x3dbdd7f5	0.09269706
193	0x3e364448	0.17799485
194	0xbeb5cfbe	-0.35510057
195	0x3d431f17	0.04763707
196	0xbe393ce0	-0.18089628
197	0xbec5f6b8	-0.38664794
198	0x3ded68d3	0.11592259
199	0x3e9be22a	0.30445987
200	0xbd233210	-0.039842665
201	0x3e4cfb63	0.20017771
202	0x3ee56558	0.44803882
203	0xbe4f093e	-0.2021837
204	0x3c95d29f	0.018288909
205	0x3e63eae8	0.22257578
206	0xbdee322c	-0.11630663
207	0x3e118e1f	0.14214371
208	0xbd5c0edf	-0.05372512
209	0xbef85c37	-0.48507854
210	0x3eb11459	0.34585837
211	0x3dc407a9	0.095717736
212	0x3d314657	0.043279972
213	0x3da377b9	0.0798182
214	0xbd8b79d5	-0.06810347
215	0x3d41a9fa	0.047281243
216	0x3d0bba5e	0.03411328
217	0x3e09eab6	0.13468441
218	0xbee3bae6	-0.4447853
219	0xbca84573	-0.020540928
220	0xbe2e86f0	-0.17043662
221	0xbdbc5130	-0.09195173
222	0xbc5501dc	-0.013000932
223	0x3f16cccd	0.5890625
224	0xbdaee319	-0.08539409
225	0x3eced585	0.40397277
226	0xbd8d832d	-0.069097854
227	0xbeaac974	-0.33356822
228	0x3ec88ddf	0.3917074
229	0x3ef5ed30	0.48032522
230	0x3e48c3a8	0.19605887
231	0x3d0dfcc6	0.03466489
232	0x3eb195cd	0.346846
233	0x3f29b8c2	0.66297543
234	0xbdc987d4	-0.0984036
235	0xbe5e0453	-0.21681337
236	0xbd7620f0	-0.060090005
237	0xbef190b9	-0.47180727
238	0x3d452ea7	0.048140194
239	0x3af494b6	0.0018660042
240	0x3e1cf52d	0.15327902
241	0x3e091f57	0.13390861
242	0xbe9d37d5	-0.3070666
243	0xbe80d81b	-0.25164875
244	0x3f0b07a3	0.5430853
245	0xbe10e371	-0.14149262
246	0x3eae87b6	0.34087914
247	0x3ea9a329	0.33132294
248	0xbedf8f4c	-0.43664014
249	0xbe149810	-0.14511132
250	0xbeb7b17f	-0.35877606
251	0x3cd41e6b	0.02589341
252	0xbe6c2a6b	-0.23063056
253	0x3e2c5e0f	0.16832756
254	0xbe4b9f45	-0.19884975
255	0x3f0d23a8	0.5513253

lstm.weight_hh_l1 f4 [512, 128]
0	0x3f1d368a	0.61411345
1	0xbe709e85	-0.2349797
2	0xbe6a374b	-0.22872655
3	0xbeaab547	-0.3334143
4	0x3de31e18	0.11089724
5	0xbda979d1	-0.08275188
6	0xbd967d08	-0.073480666
7	0xbe5bec3e	-0.21476838
8	0x3e16dbb8	0.14732254
9	0x3e251bd9	0.16123904
10	0x3e844b8c	0.25838888
11	0xbe7389b1	-0.23782994
12	0x3e850bdf	0.2598562
13	0xbeb7c019	-0.35888746
14	0x3e5f401a	0.21801797
15	0x3e38e8cf	0.1805756
16	0xbeee086b	-0.46490797
17	0xbf24b6fe	-0.64341724
18	0x3ee5a0bc	0.44849193
19	0xbe258570	-0.16164184
20	0xbf131459	-0.57452923
21	0xbc0eb851	-0.008710937
22	0x3f35961f	0.7093219
23	0xbdb9d75f	-0.09074282
24	0xbc01cc31	-0.007922218
25	0xbd5552c9	-0.052080903
26	0x3e53492f	0.20633386
27	0x3d90045a	0.0703208
28	0xbe4b7e82	-0.19872478
29	0x3e6f34f3	0.23360042
30	0xbee8dac8	-0.45479417
31	0x3e621456	0.2207807
32	0x3d9a7f69	0.07543833
33	0xbd9e339b	-0.07724687
34	0x3b3dcc06	0.0028960719
35	0xbe24c56c	-0.16090935
36	0xbe1ad1c9	-0.15119089
37	0xbe50c1b4	-0.20386392
38	0xbe4b33ae	-0.19843933
39	0xbe4d3d7a	-0.20042983
40	0xbeab85ea	-0.33500606
41	0xbe489409	-0.19587721
42	0xbf1754af	-0.5911359
43	0xbf2aa657	-0.66660064
44	0x3e1a8f2a	0.15093675
45	0xbabdf906	-0.001449377
46	0xbedeeebb	-0.43541512
47	0xbde7ebc5	-0.11324266
48	0xbe21b262	-0.15790704
49	0xbebbb8c7	-0.3666441
50	0xbe06dd22	-0.13170293
51	0xbd00d3e3	-0.03145207
52	0xbef3c9aa	-0.47614795
53	0x3dbc2b47	0.09187942
54	0x3ec2585c	0.37958038
55	0x3e49cfe0	0.19708204
56	0xbe1850be	-0.1487455
57	0x3efa136d	0.48842946
58	0x3de85816	0.11344926
59	0xbea18870	-0.31549406
60	0xbe080ae7	-0.13285409
61	0x3d1f4c47	0.038891103
62	0xbdddcc0d	-0.10829935
63	0xbc222d39	-0.009898477
64	0xbe9c01b7	-0.30470058
65	0xbe35f28b	-0.17768304
66	0x3edfe924	0.4373256
67	0xbc520248	-0.012817927
68	0x3e80d80e	0.25164837
69	0x3e6b37e1	0.22970535
70	0x3e00776d	0.12545557
71	0xbe8548cc	-0.26032102
72	0xbd818a44	-0.063252
73	0xbe41b8a4	-0.18918091
74	0x3d9256eb	0.071454845
75	0xbee4aa2e	-0.44661087
76	0x3eb57e79	0.35448053
77	0x3f1211c9	0.5705839
78	0x3e8cd0df	0.27503106
79	0xbcef5a13	-0.029217755
80	0xbe23921a	-0.15973702
81	0xbda566c0	-0.08076239
82	0xbda15c86	-0.078789756
83	0xbce311a8	-0.02771838
84	0xbe2cb31c	-0.168652
85	0xbd39b331	-0.045336906
86	0x3cd387fe	0.025821682
87	0x3ed2666c	0.41093767
88	0x3db549a4	0.088519365
89	0xbe7f5dc2	-0.2493811
90	0xbc33c1ee	-0.010971529
91	0xbc2e7ea8	-0.010650314
92	0x3c1232ea	0.008923272
93	0xbdd86c14	-0.10567489
94	0x3f0a4176	0.54006135
95	0x3ccb4b85	0.024816284
96	0x3da5152c	0.08060679
97	0xbe2d41dd	-0.16919656
98	0xbe75d4c6	-0.24006948
99	0x3b015f7d	0.0019740753
100	0xbe22905d	-0.15875383
101	0xbeba242c	-0.36355722
102	0x3ca45553	0.020060217
103	0xbe5c7996	-0.21530756
104	0xbe42299e	-0.18961188
105	0x3e0be95f	0.13663243
106	0xbeb38f2a	-0.35070163
107	0x3f096fb5	0.53686076
108	0xbdf15367	-0.11783486
109	0xbed250ed	-0.41077366
110	0xbe20c8c2	-0.15701583
111	0x3e7e5c1b	0.24839823
112	0xbe726fa2	-0.23675397
113	0x3db9050b	0.09034165
114	0x3e4f97ff	0.20272826
115	0xbdfac172	-0.12243928
116	0x3e23d9de	0.16001078
117	0xbe718e94	-0.23589545
118	0xbe9821c6	-0.29713267
119	0x3cf09104	0.029366024
120	0x3e826a8c	0.25471914
121	0xbe8d463d	-0.2759265
122	0x3df74903	0.12074473
123	0x3d0fc90d	0.035103846
124	0x3e48f7fc	0.19625849
125	0x3e91af2d	0.2845396
126	0xbec61517	-0.38687965
127	0xbe282d10	-0.1642344
128	0x3ea31742	0.31853682
129	0xbe9d2788	-0.30694222
130	0xbd0ba4b5	-0.034092624
131	0x3e7d190a	0.24716583
132	0xbdfa3243	-0.12216618
133	0x3e4e6676	0.20156273
134	0x3e923fb5	0.2856423
135	0x3e8d2d08	0.2757342
136	0x3e1572c4	0.14594561
137	0x3ebc2648	0.36747956
138	0xbe8e4e73	-0.27794227
139	0xbe4f67e1	-0.2025447
140	0xbe8cc18c	-0.27491415
141	0x3c864539	0.01639043
142	0xbf4370f2	-0.76344216
143	0x3c5da06f	0.01352702
144	0xbed6f9a3	-0.41987333
145	0x3d1cca58	0.038278908
146	0x3f4c84d8	0.79890203
147	0xbe57426a	-0.21021429
148	0xbd0caee9	-0.034346495
149	0xbd66a199	-0.056306455
150	0xbe6df017	-0.23236118
151	0x3d879774	0.06620684
152	0x3f40e24d	0.7534531
153	0xbd01f46f	-0.03172725
154	0x3c5df3dd	0.013546911
155	0x3f31c231	0.6943694
156	0x3e930ded	0.28721562
157	0xbecb0767	-0.39654085
158	0x3e27f5b4	0.16402322
159	0x3f3b1968	0.7308564
160	0xbddadcc9	-0.10686643
161	0xbe54ff58	-0.20800531
162	0x3f07e12e	0.5307797
163	0xbd3eb4cb	-0.046559136
164	0x3bd953f0	0.0066323206
165	0xbdcbd10c	-0.09951982
166	0xbf0f9f14	-0.5610211
167	0xbd9b105e	-0.07571481
168	0x3e5cf5f5	0.215782
169	0x3e52fced	0.20604296
170	0x3e109a70	0.14121413
171	0xbe3c9bdf	-0.18418835
172	0x3ed6ba92	0.41939217
173	0xbdafd442	-0.08585407
174	0x3e76c83b	0.2409982
175	0xbe460a6c	-0.19339913
176	0xbd4b168a	-0.04958204
177	0x3dd15adb	0.102224074
178	0x3e44c15d	0.19214387
179	0xbe386145	-0.18005855
180	0x3f22771e	0.6346301
181	0x3e6961d3	0.22791223
182	0xbe4d8f5f	-0.20074223
183	0xbde80f21	-0.113310106
184	0xbea415f7	-0.32048008
185	0xbf28e2a2	-0.65970814
186	0x3e7277a0	0.23678446
187	0x3d811f3d	0.06304786
188	0x3cb266ea	0.021777589
189	0x3ed63bb1	0.41842416
190	0x3ea0667a	0.31328183
191	0x3ee1e9a2	0.4412356
192	0x3d2691d0	0.0406664
193	0x3e9099e3	0.28242406
194	0x3d86a65f	0.065747015
195	0xbda9e8cf	-0.08296358
196	0x3f792503	0.973221
197	0x3d248372	0.04016442
198	0xbc1bd065	-0.009510134
199	0x3d4fefd1	0.050765816
200	0x3eb89f3a	0.3605898
201	0x3e10d0e7	0.1414219
202	0xbcabd8df	-0.020977436
203	0x3ecb2982	0.39680105
204	0xbd1b2821	-0.037880067
205	0xbeb431d4	-0.35194266
206	0x3e694bce	0.22782823
207	0xbe7ba580	-0.24574852
208	0xbc0e14c8	-0.008671947
209	0xbe4519ed	-0.19248171
210	0x3dfc7ae4	0.12328127
211	0xbe820f3d	-0.2540225
212	0x3e11833b	0.14210217
213	0xbe4ad199	-0.19806518
214	0xbedbbf02	-0.42919165
215	0x3e94fa5e	0.29097265
216	0x3d45e4bb	0.048313837
217	0x3e646d16	0.22307238
218	0xbd9fe662	-0.07807614
219	0x3dbc3748	0.091902316
220	0xbe5fd362	-0.2185798
221	0x3c23599a	0.009970093
222	0x3e827a8c	0.2548412
223	0x3ef84c19	0.48495558
224	0xbd965d8a	-0.0734206
225	0xbe9f97da	-0.3117054
226	0x3e9685a6	0.2939884
227	0x3e7cdc0c	0.24693316
228	0xbeded3ac	-0.43520868
229	0xbd323665	-0.043508906
230	0x3dd358a2	0.1031964
231	0x3ef64112	0.4809652
232	0xbe7dc362	-0.24781564
233	0x3dda32c4	0.10654214
234	0xbf481117	-0.7815108
235	0xbdfda694	-0.12385288
236	0x3ea0009b	0.31250462
237	0x3d51152a	0.051045574
238	0x3d6d242d	0.057895828
239	0xbdb6c4ac	-0.08924231
240	0xbdfe714f	-0.12423956
241	0xbe0c6a4e	-0.13712427
242	0x3ed91038	0.42395186
243	0xbf036df5	-0.51339656
244	0x3dce6dc3	0.10079529
245	0x3e5d4b6e	0.21610805
246	0xbe7696c2	-0.24080947
247	0x3e2c8407	0.1684724
248	0xbe3103b7	-0.17286573
249	0x3ed84814	0.4224249
250	0xbd2860d0	-0.041107953
251	0xbd8dbeaa	-0.06921132
252	0x3ccd53ee	0.025064435
253	0x3e208507	0.15675746
254	0x3e09c31a	0.13453332
255	0xbf1f2edc	-0.62180877

lstm.bias_ih_l1 f4 [512]
0	0xbe1aa2ee	-0.15101215
1	0x3d747c9a	0.05968914
2	0x3c8c37fd	0.017116541
3	0xbe7e555c	-0.2483725
4	0xbf056800	-0.52111816
5	0xbe89b591	-0.26896337
6	0xbe830d6e	-0.25596184
7	0xbea80088	-0.32812905
8	0x3e301d21	0.17198612
9	0xbd94f543	-0.072733425
10	0xbebf527a	-0.37367612
11	0xbdc3aacd	-0.09554062
12	0xbf447eb1	-0.76755816
13	0xbef56f6f	-0.4793658
14	0xbec6476a	-0.3872636
15	0xbf2eac1f	-0.68231386
16	0x3ee9739e	0.4559602
17	0xbf59af5a	-0.8503319
18	0xbf0f63f6	-0.56011903
19	0xbe7cd2f3	-0.24689846
20	0xbea3ab14	-0.3196646
21	0xbdb1fb19	-0.08690471
22	0xbf124f78	-0.5715251
23	0xbe72b5f7	-0.23702227
24	0xbdc5e002	-0.09661867
25	0xbcea4738	-0.028598413
26	0x3d0e283d	0.034706343
27	0xbf1bb28a	-0.60819304
28	0xbf0d6a69	-0.55240494
29	0xbda54767	-0.080702595
30	0xbea33423	-0.31875715
31	0xbe9e670d	-0.30937997
32	0xbec4069b	-0.3828629
33	0xbeca5e4c	-0.39525068
34	0xbe45bbf5	-0.19309981
35	0xbf1a705b	-0.6032769
36	0xbebceac1	-0.36897853
37	0xbf0d0120	-0.5507984
38	0xbef90dc6	-0.4864332
39	0xbe0563d9	-0.1302637
40	0xbe21b523	-0.15791754
41	0x3e2bde7a	0.16784087
42	0xbe940b21	-0.2891474
43	0xbe9f0ee4	-0.31066048
44	0xbe600244	-0.21875864
45	0xbec7eb4d	-0.39046708
46	0xbefdad17	-0.4954612
47	0xbea247a3	-0.3169528
48	0xbf0f422d	-0.5596035
49	0xbf21d56f	-0.632163
50	0xbde4ffa6	-0.111815736
51	0xbeb21721	-0.3478327
52	0x3db2ed2d	0.08736644
53	0xbc108a0b	-0.0088219745
54	0xbf4a7456	-0.79083765
55	0xbe4d1f26	-0.20031413
56	0xbdf4ab9a	-0.11946793
57	0xbf045f0f	-0.5170755
58	0x3e16e265	0.147348
59	0xbea2457e	-0.31693643
60	0xbea603a3	-0.3242465
61	0xbf1f22c9	-0.6216245
62	0xbf07efe7	-0.53100437
63	0xbec7fab3	-0.39058456
64	0xbef64788	-0.4810145
65	0xbe3bad3d	-0.18327804
66	0xbe9aee30	-0.30259848
67	0xbe682169	-0.22668995
68	0xbe83b116	-0.25721043
69	0xbe926ed0	-0.28600168
70	0xbc72a17d	-0.01480901
71	0xbd9fa52b	-0.07795175
72	0xbecc08af	-0.39850375
73	0xbdbe6348	-0.0929628
74	0xbed7b652	-0.42131287
75	0xbe83b4b1	-0.25723794
76	0xbe504cd5	-0.20341809
77	0xbe276072	-0.16345385
78	0xbefce645	-0.49394432
79	0xbe9b9fc5	-0.30395332
80	0x3e3684b6	0.17824063
81	0xbe63060f	-0.2217028
82	0x3ecd0e64	0.40050042
83	0xbf31ab43	-0.6940195
84	0xbe8c62c1	-0.27419093
85	0x3df60610	0.12012875
86	0xbe656456	-0.22401556
87	0xbf0d8065	-0.5527404
88	0xbf1af7a8	-0.60534143
89	0xbeba1513	-0.36344203
90	0xbdab17a5	-0.08354119
91	0xbe12906d	-0.14312907
92	0xbec8cd4f	-0.39219138
93	0x3decd51a	0.115640834
94	0xbf457ee4	-0.77146745
95	0xbeaf64a3	-0.34256467
96	0xbebe9883	-0.37225732
97	0xbd8a3acb	-0.06749495
98	0xbe8a7b15	-0.2704703
99	0xbedf286b	-0.43585524
100	0xbe09ac90	-0.13444734
101	0xbe455d07	-0.19273768
102	0x3d8304f4	0.06397429
103	0xbe859b80	-0.260952
104	0xbf2d8622	-0.67782795
105	0xbea18843	-0.31549272
106	0xbf34ed65	-0.70674735
107	0xbebb1670	-0.36540556
108	0xbf0803fe	-0.5313109
109	0xbdaddb34	-0.08489075
110	0xbeb278b3	-0.3485771
111	0x3d7b8b7c	0.06141232
112	0xbe640b48	-0.22269928
113	0xbdc832cf	-0.09775316
114	0xbe07f89d	-0.13278432
115	0xbeab8a4a	-0.33503944
116	0xbed36bd5	-0.41293207
117	0xbd6f78bb	-0.058464747
118	0xbe9bb9ff	-0.3041534
119	0xbea6ba4c	-0.32564008
120	0xbe1d2e3e	-0.15349671
121	0xbd3fda1c	-0.046838865
122	0xbe8d307a	-0.27576047
123	0xbe77a1d4	-0.24182826
124	0xbeb26fd4	-0.34850943
125	0x3e75dc75	0.24009879
126	0xbe890791	-0.26763585
127	0xbf19feb0	-0.6015425
128	0x3ec04b27	0.37557337
129	0x3e5e2f9c	0.21697849
130	0x3ef0067e	0.46879953
131	0x3e19f379	0.15034284
132	0xbe7b0666	-0.2451416
133	0xbc237f37	-0.009979061
134	0xbe5c71db	-0.21527807
135	0x3ebceee8	0.3690102
136	0x3d3392eb	0.043841284
137	0x3e0e8f10	0.13921762
138	0x3d884830	0.06654394
139	0x3d11b074	0.03556867
140	0xbeba9e9f	-0.36449143
141	0x3e83f2fd	0.25771323
142	0x3de4f07a	0.1117868
143	0x38dc5885	0.000105069055
144	0x3f88b9b9	1.0681678
145	0x3e89c693	0.26909313
146	0x3f098f5f	0.5373439
147	0x3ec2fb17	0.3808219
148	0xbdb068f3	-0.086137675
149	0xbdea17ea	-0.114303425
150	0x3de34384	0.11096862
151	0xbe14a683	-0.14516644
152	0x3ef256ab	0.47331747
153	0x3ecf8eec	0.40538728
154	0xbd607865	-0.054802317
155	0xbe5b1d7f	-0.2139797
156	0xbd53e8b6	-0.051735602
157	0xbb0e1b27	-0.0021683665
158	0xbdfe18b8	-0.124070585
159	0x3eb8813f	0.36036107
160	0x3cd2c722	0.02572972
161	0x3dc38ec5	0.095487155
162	0x3e95217f	0.29127118
163	0xbd706640	-0.058691263
164	0x3cee03e3	0.029054588
165	0x3e5aa80d	0.21353169
166	0xbe277cbb	-0.16356175
167	0xbd3e6d3d	-0.046490896
168	0x3e012e15	0.12615235
169	0x3e3c4215	0.18384583
170	0x3e100937	0.14066015
171	0x3d63377b	0.055472832
172	0x3b10982d	0.002206336
173	0x3e86e5fa	0.26347333
174	0xbdefa773	-0.1170186
175	0xbe150c36	-0.1455544
176	0xbe6062a3	-0.21912627
177	0x3d89e309	0.06732757
178	0xbcaebbb3	-0.021329736
179	0x3eaaa360	0.3332777
180	0x3e214e3e	0.15752503
181	0x3e120fdf	0.14263867
182	0xbe910df2	-0.28330952
183	0xbc9cef68	-0.019157127
184	0x3e15176c	0.14559716
185	0xbe1d6522	-0.1537061
186	0x3ec6d225	0.38832203
187	0x3e6f1103	0.23346333
188	0xbd77b532	-0.060475536
189	0x3f01d8ed	0.5072163
190	0x3bfc64da	0.007702452
191	0x3f586e66	0.84543455
192	0x3e992f3f	0.29918858
193	0x3ea9617e	0.33082193
194	0xbe0808c9	-0.13284601
195	0xbeb3514e	-0.35022968
196	0xbc95e847	-0.018299235
197	0x3c937781	0.01800132
198	0x3ebeb72c	0.37249124
199	0x3e5f9a9e	0.21836326
200	0xbdcdcddc	-0.1004903
201	0x3ebb2d69	0.36558083
202	0xbe816376	-0.25271195
203	0xbd753ed6	-0.05987438
204	0x3db92a42	0.09041263
205	0x3eaa856c	0.33304918
206	0x3d92642a	0.07148011
207	0xbdfd28af	-0.123612754
208	0x3ec07bee	0.3759455
209	0xbd93211b	-0.07184049
210	0x3defebe4	0.117149144
211	0x3f2bb6fe	0.670761
212	0x3e4d3678	0.2004031
213	0x3e93bec8	0.28856492
214	0x3f0cb75a	0.5496727
215	0x3da65663	0.08121946
216	0xbf190b96	-0.59783304
217	0x3f05b484	0.5222857
218	0xbd8589be	-0.06520413
219	0xbcc9ac42	-0.024618272
220	0xbd6d6610	-0.057958663
221	0xbe3d42ac	-0.18482465
222	0x3ec2714e	0.3797707
223	0xbc965c42	-0.018354539
224	0x3e9886df	0.29790398
225	0xbbab2931	-0.0052234163
226	0x3e15a02e	0.14611885
227	0xbe81ec9b	-0.25375828
228	0x3d555b6e	0.052089147
229	0xbe0b847c	-0.13624758
230	0x3f09d973	0.53847426
231	0x3e184d64	0.14873272
232	0xbd7451cf	-0.05964833
233	0x3e50e3ef	0.2039945
234	0xbedd582a	-0.43231326
235	0xbdc05010	-0.09390271
236	0xbe5330c2	-0.20624068
237	0x3e0f5647	0.13997756
238	0xbe00bca1	-0.12571956
239	0x3f329aa7	0.6976723
240	0xbdfc0ea4	-0.1230748
241	0x3ebd95a5	0.37028232
242	0x3e02e178	0.12781322
243	0x3dd33dcc	0.10314521
244	0xbe3b4a6f	-0.18290113
245	0xbc14e33a	-0.009087378
246	0x3ec2208d	0.3791546
247	0xbed96eb4	-0.42467272
248	0x3e66c92f	0.22537683
249	0x3ee4c344	0.44680226
250	0x3d33321d	0.043748964
251	0xbe09a78a	-0.13442817
252	0xbd7c857b	-0.061650734
253	0xbdf82b7c	-0.12117669
254	0x3f100f9f	0.56273836
255	0xbd8e091d	-0.06935332
