tutorials/02-intermediate/deep_residual_network/resnet.ckpt (torch_old, 802781 bytes, 77 tensors)

conv.weight f4 [16, 3, 3, 3]
0.1360171 0.12404388 -0.09451888 0.21920115 -0.11016546 -0.05940025 -0.08704697 -0.103071585
-0.037225626 0.12262364 0.13523147 -0.27440196 0.32083702 -0.12373405 -0.14015801 -0.09509472
0.20998886 -0.10162196 0.13172652 -0.0394188 -0.30401462 0.2841742 -0.11275203 0.041984063
-0.04535266 -0.0035804673 0.055045165 0.23268348 0.12776142 -0.0013129399 -0.033607665 0.07057575
-0.056356754 0.1589424 -0.11927471 -0.32069 0.06266414 -0.042959716 -0.014933715 -0.1866432
-0.12010913 0.13744661 -0.18231219 0.1832638 0.046883255 -0.1968168 -0.105336465 -0.20043725
0.055424724 0.047087222 0.28016979 0.038144525 0.23345445 -0.062420044 0.048203878 0.32919773
-0.012136541 -0.08090829 -0.1496258 -0.16167203 0.09955224 -0.09358392 0.013370068 -0.010620234
0.3149603 0.18353918 -0.0898316 0.03284046 -0.23006485 0.11398395 -0.12097034 -0.029475713
0.090349324 0.17338397 0.1958806 -0.1953156 -0.1552213 -0.16214216 -0.09488341 0.025862824
0.010523046 0.13721646 0.17795299 0.10796636 -0.11302948 0.44422087 0.17693737 -0.025944397
0.12314657 -0.025838662 -0.06810281 -0.054629844 0.15596215 -0.280768 0.015450554 -0.02285219
-0.29906186 -0.13043702 -0.005733372 -0.01729387 0.16000783 0.06370674 0.1623191 0.07292957
-0.25275683 0.07791344 0.10101846 -0.092180066 -0.0025163942 -0.21345173 0.26859033 0.005332015
0.09335511 0.14081497 0.071917415 0.16332959 0.3308956 0.32390946 -0.06945014 0.029127765
0.1065281 -0.10118164 -0.045955528 -0.11555285 -0.3665656 0.13361889 0.07417628 -0.025674129
0.19245894 0.18499607 -0.094675735 -0.094316155 -0.07665887 -0.048247874 -0.07861812 0.13167222
0.0818681 0.19283323 0.07838273 0.27029794 -0.09476045 -0.17887312 0.15367033 -0.16871363
0.08873613 -0.27410075 0.042690016 -0.102238774 0.13712126 -0.26673922 -0.02242716 -0.1579928
-0.11771764 -0.035575 -0.2143297 0.12241417 0.036697466 0.0011446909 0.021954847 0.051611684
-0.01803549 0.2748057 0.076190814 0.10826958 -0.23996142 -0.0704462 -0.14148578 -0.16911468
0.20850849 0.31129494 0.093529984 -0.14159235 0.07953245 -0.22422297 -0.15330774 0.1765001
-0.2005964 0.03413304 -0.043659665 0.26395705 0.11338827 0.014206448 0.014613852 0.078630015
0.12745515 -0.095837966 -0.11642454 -0.08663665 0.065952756 -0.026969824 0.08941674 -0.20058364
-0.028142625 -0.19937487 0.09187007 -0.005366839 0.014353806 -0.16423996 0.19763432 -0.09258963
-0.077779934 0.20630154 -0.28134203 -0.05645675 -0.074031875 -0.1553526 0.08625238 0.036915507
-0.023669949 0.24972768 -0.099221095 0.15431006 0.29267058 0.024973867 -0.099703416 0.20060907
0.17401311 -0.12966974 -0.19635719 -0.17443246 0.0384514 0.07954394 0.20923002 -0.065505095
0.16855122 0.14112733 0.07617987 -0.08363233 -0.1856315 -0.038361717 0.3774065 -0.14266177
-0.025562989 -0.2294256 0.07735006 -0.15649499 0.086172566 -0.06410576 -0.24487422 0.223707
0.11062199 -0.20165479 0.17788489 -0.24864572 0.14194342 0.103455156 0.018711705 -0.046753746
-0.13934287 -0.19662125 -0.23586911 -0.061234765 0.17679456 0.17932937 -0.1531489 -0.11370697
00000000: 1148 0b3e b80a fe3d 1d93 c1bd 4476 603e
00000010: 6e9e e1bd ad4d 73bd af45 b2bd 3217 d3bd
00000020: e679 18bd 1a22 fb3d 1e7a 0a3e 6a7e 8cbe
00000030: c044 a43e 4768 fdbd 9585 0fbe 05c1 c2bd
00000040: 5207 573e 2d1f d0bd 51e3 063e 9c75 21bd
00000050: cea7 9bbe 487f 913e 89ea e6bd 7bf7 2b3d
00000060: b6c3 39bd 46a6 6abb 0a77 613d 9444 6e3e
00000070: e4d3 023e f416 acba 31a8 09bd 058a 903d
00000080: 57d6 66bd ccc1 223e 4d46 f4bd 7b31 a4be
00000090: 0e56 803d 87f6 2fbd 8aac 74bc 651f 3fbe
000000a0: c7fb f5bd cebe 0c3e 0cb0 3abe 81a9 3b3e
000000b0: a808 403d 588a 49be a5ba d7bd 6c3f 4dbe
000000c0: 0905 633d 88de 403d 6a72 8f3e 6f3d 1c3d
000000d0: af0e 6f3e 29ac 7fbd 6e71 453d 9b8c a83e
000000e0: 58d8 46bc 3fb3 a5bd 8137 19be 5a8d 25be
000000f0: 0be2 cb3d eda8 bfbd 210e 5b3c 7d00 2ebc
00000100: 7a42 a13e b2f1 3b3e a1f9 b7bd b883 063d
00000110: 1f96 6bbe 6b70 e93d 4cbf f7bd 0d77 f1bc
00000120: 1109 b93d 918b 313e ed94 483e d000 48be
00000130: 55f2 1ebe 9808 26be 3c52 c2bd 46de d33c
00000140: db68 2c3c 7982 0c3e 4f39 363e 781d dd3d
00000150: 007c e7bd eb70 e33e 122f 353e 5889 d4bc
00000160: 4534 fc3d 9aab d3bc 7c79 8bbd 8bc3 5fbd
00000170: 8bb4 1f3e d3c0 8fbe 5224 7d3c 8434 bbbc
00000180: a31e 99be 4891 05be 03df bbbb e0ab 8dbc
00000190: 18d9 233e ae78 823d fa36 263e 195c 953d
000001a0: 5869 81be 1591 9f3d c4e2 ce3d e7c8 bcbd
000001b0: 17ea 24bb 1793 5abe ac84 893e 2fb8 ae3b
000001c0: f730 bf3d cd31 103e 7049 933d df3f 273e
000001d0: 266b a93e 76d7 a53e e03b 8ebd 5a9d ee3c
000001e0: 682b da3d 5238 cfbd dd3b 3cbd f9a6 ecbd
000001f0: 7cae bbbe 64d3 083e bce9 973d 8d52 d2bc
00000200: f513 453e 9c6f 3d3e 5ae5 c1bd d428 c1bd
00000210: 53ff 9cbd 909f 45bd 8902 a1bd 15d5 063e
00000220: 76aa a73d 1376 453e 2087 a03d 7e64 8a3e
00000230: c411 c2bd 842a 37be c15b 1d3e 44c3 2cbe
00000240: 4abb b53d ef56 8cbe badb 2e3d 9062 d1bd
00000250: 8469 0c3e 0b92 88be 2ab9 b7bc ddc8 21be
00000260: f215 f1bd 17b7 11bd 3f79 5bbe 48b4 fa3d
00000270: 1550 163d 7409 963a a7da b33c c666 533d
00000280: 2abf 93bc 55b3 8c3e ee09 9c3d 71bc dd3d
00000290: 72b8 75be 1946 90bd a6e1 10be 662c 2dbe
000002a0: 4083 553e 0d62 9f3e a68c bf3d 96fd 10be
000002b0: e9e1 a23d b59a 65be b4fc 1cbe 71bc 343e
000002c0: 2569 4dbe 16cf 0b3d 7ad4 32bd 6125 873e
000002d0: 1c38 e83d 29c2 683c f06e 6f3c c608 a13d
000002e0: 9a83 023e b246 c4bd fd6f eebd 8e6e b1bd
000002f0: 3d12 873d d2ef dcbc 2020 b73d cc65 4dbe
00000300: 5d8b e6bc ed28 4cbe 6026 bc3d 4fdc afbb
00000310: 3a2c 6b3c 852e 28be a760 4a3e a29f bdbd
00000320: 164b 9fbd b640 533e 100c 90be 313f 67bd
00000330: 069e 97bd c114 1fbe 16a5 b03d b734 173d
00000340: 7be7 c1bc 9db8 7f3e 6e34 cbbd 7503 1e3e
00000350: ebd8 953e ff95 cc3c 4e31 ccbd 776c 4d3e
00000360: 7e30 323e 25c8 04be dc11 49be 6c9e 32be
00000370: 377f 1d3d efe7 a23d 6540 563e 8927 86bd
00000380: b198 2c3e af83 103e 3104 9c3d 6d47 abbd
00000390: 2f16 3ebe 2d21 1dbd 6d3b c13e ed15 12be
000003a0: 7969 d1bc 8bee 6abe b569 9e3d 3940 20be
000003b0: 3e7b b03d e149 83bd 4fc0 7abe 7313 653e
000003c0: c88d e23d 987e 4ebe 7527 363e fc9c 7ebe
000003d0: 9e59 113e 4ce0 d33d 4a49 993c db80 3fbd
000003e0: e6af 0ebe 1557 49be ac87 71be 4ed1 7abd
000003f0: a209 353e 1ea2 373e 11d3 1cbe 33df e8bd

bn.weight f4 [16]
0.34699792 0.58361256 0.87527436 0.09329429 0.13436829 0.51453906 0.72557867 0.45685574
0.38504687 0.26776716 0.38340187 0.31283057 0.5073609 0.791371 0.3566619 0.2729353
00000000: b6a9 b13e a267 153f fb11 603f 1411 bf3d
00000010: d797 093e d5b8 033f 86bf 393f ffe8 e93e
00000020: dd24 c53e c718 893e 404d c43e 542b a03e
00000030: 67e2 013f 4a97 4a3f 639c b63e 2dbe 8b3e

bn.bias f4 [16]
0.14719008 0.4393671 0.5124641 0.057345103 -0.06416288 0.47014394 0.28722188 0.12041671
0.44165942 -0.011188486 0.029370792 -0.20958124 0.012465845 -0.11665299 0.21733624 0.07801013
00000000: ffb8 163e b9f4 e03e d930 033f b3e2 6a3d
00000010: d467 83bd b5b6 f03e bf0e 933e 099d f63d
00000020: 2f21 e23e e94f 37bc 049b f03c 779c 56be
00000030: 8b3d 4c3c c3e7 eebd 648d 5e3e c6c3 9f3d

bn.running_mean f4 [16]
0.021318834 0.013518998 0.014986867 0.24352401 0.31566817 0.0118928775 0.03152474 -0.0057961578
-0.0032786108 -0.07420613 -0.020958908 -0.01317586 -0.12091197 -0.29528815 0.012741322 -0.040303063
00000000: d6a4 ae3c ca7e 5d3c 7a8b 753c 5c5e 793e
00000010: 429f a13e 58da 423c 1620 013d b2ed bdbb
00000020: f6dd 56bb 62f9 97bd 04b2 abbc 90df 57bc
00000030: b2a0 f7bd 0230 97be fac0 503c d314 25bd

bn.running_var f4 [16]
0.03626603 0.0028771525 0.0352204 0.04331979 0.04840325 0.004247035 0.017143158 0.01277803
0.008308806 0.016986296 0.017760111 0.05441682 0.020358326 0.056569412 0.024369895 0.015880903
00000000: b08b 143d 9c8e 3c3b 4443 103d 1870 313d
00000010: 7c42 463d b62a 8b3b cf6f 8c3c f15a 513c
00000020: a921 083c d826 8b3c a77d 913c 2ce4 5e3d
00000030: 81c6 a63c 54b5 673d 60a3 c73c ab18 823c

layer1.0.conv1.weight f4 [16, 16, 3, 3]
0.040733933 -0.06078143 0.04618145 -0.066819176 0.08066185 -0.49690416 0.24734029 -0.034427833
0.11761472 0.024121396 -0.1543308 0.0215349 -0.10171029 0.172794 0.009640067 0.07904877
-0.10654852 -0.006505696 0.063662395 0.08362005 -0.06341045 0.06910033 -0.014782212 0.15674797
-0.25955015 -0.11082668 0.024424626 -0.10917542 -0.03685044 0.14912975 -0.19911948 -0.12677464
0.043626845 -0.02430436 0.04284188 -0.029141236 -0.042686585 0.12019988 -0.08376879 0.0024620905
-0.094939716 -0.07018652 -0.07146642 -0.029163562 -0.055827662 0.15915093 0.12396747 0.14952831
-0.026857844 -0.2112076 0.13976215 -0.21748102 0.2187899 -0.16980773 -0.03883915 0.06816825
-0.06767771 0.21778576 0.07346706 0.01700291 -0.042886786 -0.20748834 -0.022591505 0.09868498
0.019085491 0.008753438 -0.10791402 0.057475336 -0.121818975 0.004978468 -0.091911726 0.061249156
0.034329854 0.08392482 -0.15114507 -0.2799166 0.010336863 0.08369014 0.10858083 -0.04636953
-0.2691203 -0.027627597 -0.055597182 -0.11124073 0.12643903 -0.15774556 -0.066687495 0.08255414
-0.06694418 0.184691 0.09865219 -0.008321896 -0.14678887 0.064430885 0.15197077 -0.052346684
0.02571512 0.17152555 0.19443364 -0.09584731 -0.14235426 -0.2958281 0.019292101 -0.11386098
-0.14373972 -0.09678397 0.0034771583 0.097674675 0.01410633 0.09275286 -0.024403896 0.020427
0.0010467693 0.008206156 -0.27546373 -0.14079975 -0.11637696 -0.008933617 0.101524256 0.030890677
0.1840825 -0.08775619 -0.062152136 -0.038075056 -0.15967971 -0.0062464746 -0.026954731 -0.004118062
-0.03383001 0.01702626 0.042387497 -0.24415971 -0.012517883 -0.07653966 -0.08895915 0.040746186
0.04877495 0.17354923 -0.18175012 0.09892215 -0.13569768 0.08801658 0.014050655 -0.115336984
0.069437556 0.0094753355 0.11094512 0.029696463 0.04598545 -0.030331353 -0.021021424 0.008889031
-0.21176538 0.1692992 0.024680888 -0.07548399 -0.02593292 -0.043278947 0.058162704 -0.07115663
-0.035730712 0.011016124 -0.008844137 -0.044269696 -0.056829356 0.15501939 0.10671015 0.122848466
0.09366792 -0.093536146 -0.1121501 0.013098662 0.006811967 0.078935884 -0.13765584 -0.15276065
-0.055384006 -0.06330456 -0.017251063 0.053400192 0.038380288 0.0044165 0.11507715 -0.04871435
-0.0130961295 0.0131603 0.06965649 0.08068318 0.18323153 -0.1782491 -0.11722557 0.09750685
-0.033000577 -0.13683282 0.06679254 -0.010408865 -0.073345214 0.08835254 -0.0349982 -0.21223944
0.02835167 0.06416186 -0.12978975 -0.12017087 0.11552768 -0.074269615 -0.07272316 0.11505043
0.08211122 -0.047990356 -0.053160507 0.16208442 -0.077874005 0.04088835 0.05733689 -0.08777333
0.010296136 -0.0011128903 -0.17987144 -0.005104625 0.09963829 -0.041035905 0.18181193 0.1220593
0.21711178 0.03573772 0.10027344 0.29393268 0.011940402 0.13625409 0.2754454 -0.14717343
-0.22202857 -0.15456735 -0.017648624 0.18707749 0.07195624 -0.22063264 0.039811622 0.040879577
-0.28746563 -0.05258782 0.11730832 0.08388844 0.117067926 0.06939993 0.09433923 0.03281334
0.07508577 -0.102184735 -0.11482887 -0.1272368 -0.20533822 -0.1310258 -0.1540572 -0.047669787
00000000: a0d8 263d f3f5 78bd c328 3d3d 7ed8 88bd
00000010: 0a32 a53d 396a febe c646 7d3e 3304 0dbd
00000020: fcdf f03d 3c9a c53c e508 1ebe f569 b03c
00000030: 7c4d d0bd e9f0 303e 5ff1 1d3c 52e4 a13d
00000040: 1c36 dabd bc2d d5bb 6e61 823d fd40 ab3d
00000050: 57dd 81bd 7984 8d3d 1731 72bc 8a82 203e
00000060: c2e3 84be 19f9 e2bd 2716 c83c 5d97 dfbd
00000070: 7df0 16bd 78b5 183e fae5 4bbe 36d1 01be
00000080: 10b2 323d f019 c7bc f87a 2f3d 9ab9 eebc
00000090: 21d8 2ebd 5b2b f63d f98e abbd 065b 213b
000000a0: c16f c2bd f3bd 8fbd fd5c 92bd 6ce8 eebc
000000b0: 8cab 64bd 76f8 223e a8e2 fd3d f31d 193e
000000c0: fb04 dcbc ce46 58be cf1d 0f3e 58b3 5ebe
000000d0: 760a 603e 14e2 2dbe cd15 1fbd cc9b 8b3d
000000e0: 9c9a 8abd 3b03 5f3e e675 963d b049 8b3c
000000f0: 0eaa 2fbd d377 54be d211 b9bc 5a1b ca3d
00000100: 2d59 9c3c 946a 0f3c 0702 ddbd 426b 6b3d
00000110: 3a7c f9bd 6b22 a33b 373c bcbd 65e0 7a3d
00000120: 769d 0c3d c7e0 ab3d c6c5 1abe 3b51 8fbe
00000130: f25b 293c bc65 ab3d a05f de3d faed 3dbd
00000140: 23ca 89be 4553 e2bc dfb9 63bd 2ed2 e3bd
00000150: 3c79 013e 0d88 21be 7493 88bd 2512 a93d
00000160: 081a 89bd a31f 3d3e 290a ca3d 9058 08bc
00000170: d24f 16be 57f4 833d 3a9e 1b3e 7a69 56bd
00000180: 84a8 d23c 65a4 2f3e 9d19 473e 984b c4bd
00000190: 51c5 11be c876 97be 780a 9e3c f22f e9bd
000001a0: 8130 13be ad36 c6bd 09e1 633b a909 c83d
000001b0: 3d1e 673c 36f5 bd3d aeea c7bc 8656 a73c
000001c0: c033 893a 1d73 063c 9509 8dbe cf2d 10be
000001d0: 0b57 eebd 4e5e 12bc f3eb cf3d 720e fd3c
000001e0: 1f80 3c3e 84b9 b3bd 3d93 7ebd 97f4 1bbd
000001f0: 1483 23be 3aaf ccbb 2bd0 dcbc cff0 86bb
00000200: 5691 0abd a87a 8b3c 839e 2d3d 0105 7abe
00000210: cf17 4dbc d3c0 9cbd 3730 b6bd 79e5 263d
00000220: 3ec8 473d e4b6 313e b41c 3abe b297 ca3d
00000230: 55f4 0abe 0942 b43d b834 663c cc35 ecbd
00000240: 4735 8e3d 703e 1b3c 3237 e33d ff45 f33c
00000250: 3d5b 3c3d 7579 f8bc 1f35 acbc 4ca3 113c
00000260: 06d9 58be c55c 2d3e 932f ca3c 5a97 9abd
00000270: 4671 d4bc 4445 31bd 043c 6e3d 91ba 91bd
00000280: 5e5a 12bd f97c 343c 00e7 10bc 2454 35bd
00000290: e6c5 68bd 67bd 1e3e da8a da3d fa97 fb3d
000002a0: f7d4 bf3d e18f bfbd f4ae e5bd c59b 563c
000002b0: ec36 df3b 23a9 a13d a7f5 0cbe 4a6d 1cbe
000002c0: 57da 62bd d2a5 81bd 1a52 8dbc 29ba 5a3d
000002d0: a634 1d3d 4ab8 903b 92ad eb3d b388 47bd
000002e0: 2691 56bc 4d9e 573c 10a8 8e3d 393d a53d
000002f0: 0ca1 3b3e ef86 36be f613 f0bd acb1 c73d
00000300: 9d2b 07bd e71d 0cbe 87ca 883d f289 2abc
00000310: 0436 96bd 2df2 b43d 465a 0fbd 4c55 59be
00000320: c341 e83c 4b67 833d 9be7 04be 251c f6bd
00000330: c799 ec3d ab1a 98bd e1ef 94bd 8f9f eb3d
00000340: ed29 a83d 8991 44bd d5be 59bd 75f9 253e
00000350: 687c 9fbd 8b7a 273d 16da 6a3d 81c2 b3bd
00000360: 20b1 283c 67de 91ba 3830 38be b344 a7bb
00000370: 290f cc3d 4415 28bd e82c 3a3e 3afa f93d
00000380: 8d52 5e3e b761 123d 295c cd3d 587e 963e
00000390: ada1 433c 3186 0b3e 2e07 8d3e a2b4 16be
000003a0: 755b 63be e746 1ebe d993 90bc 3e91 3f3e
000003b0: cb5d 933d 86ed 61be 8311 233d 5871 273d
000003c0: b22e 93be 5366 57bd 583f f03d b4cd ab3d
000003d0: 4fc1 ef3d 8d21 8e3d ed34 c13d 4867 063d
000003e0: 91c6 993d 3b46 d1bd 662b ebbd 5d4a 02be
000003f0: 2f44 52be a12b 06be 2cc1 1dbe 6541 43bd

layer1.0.bn1.weight f4 [16]
0.5919676 0.45028478 0.4062322 0.46630597 0.5442426 0.46091035 0.80163705 0.41760698
0.54601663 0.4949891 0.58477163 0.37909156 0.56019294 0.81042767 0.29415247 0.5634627
00000000: 308b 173f ba8b e63e abfd cf3e a8bf ee3e
00000010: 7c53 0b3f 71fc eb3e 1638 4d3f 95d0 d53e
00000020: bfc7 0b3f 366f fd3e 98b3 153f 4a18 c23e
00000030: ce68 0f3f 3078 4f3f 279b 963e 173f 103f

layer1.0.bn1.bias f4 [16]
0.2559282 0.082851596 0.15589415 -0.04417651 -0.09620477 0.024494518 0.38647732 0.029476266
-0.060425516 -0.11741604 0.16505504 0.0011584874 -0.060485307 0.047676835 -0.0683209 0.20566037
00000000: 0509 833e 19ae a93d b7a2 1f3e 6ef2 34bd
00000010: 0207 c5bd baa8 c83c 5be0 c53e 3678 f13c
00000020: bf80 77bd d277 f0bd 3004 293e 63d8 973a
00000030: 71bf 77bd c948 433d d4eb 8bbd a298 523e

layer1.0.bn1.running_mean f4 [16]
-0.4270323 -0.25141442 -0.25085586 0.19096419 -0.7490849 -0.24374929 -0.12610678 -0.39701214
0.1551181 0.68923646 -0.6286775 -0.742879 -1.1180023 -0.22953646 0.7748233 -0.48766834
00000000: faa3 dabe 64b9 80be 2e70 80be 1e8c 433e
00000010: 07c4 3fbf 6a99 79be 2322 01be 2d45 cbbe
00000020: 47d7 1e3e cd71 303f 02f1 20bf 512d 3ebf
00000030: b31a 8fbf 9b0b 6bbe d25a 463f aaaf f9be

layer1.0.bn1.running_var f4 [16]
0.3280277 0.33246922 0.33052066 0.4013199 0.51226354 0.2562299 0.1934693 0.2151143
0.21635775 0.5428365 0.23531654 0.497865 1.0024372 0.5570022 0.5526844 0.40891415
00000000: 3ff3 a73e 6839 aa3e 013a a93e cd79 cd3e
00000010: b423 033f 9130 833e d11c 463e ec46 5c3e
00000020: e38c 5d3e 55f7 0a3f d2f6 703e 29e8 fe3e
00000030: dd4f 803f b297 0e3f ba7c 0d3f 325d d13e

layer1.0.conv2.weight f4 [16, 16, 3, 3]
-0.06390663 -0.12079199 0.07678551 0.059707295 -0.06422836 -0.104655035 -0.065210834 -0.032704692
-0.0020797437 -0.14123651 0.007360472 0.21037439 -0.24625416 -0.0021503365 -0.0043745325 -0.15239096
0.06351811 0.094955176 0.11595682 0.13442056 -0.05625097 0.13168944 0.025007186 -0.14461994
-0.10239862 0.15122078 -0.1510714 -0.010310709 0.06651877 -0.17113161 0.08716476 0.04206364
0.022129146 0.11632683 -0.07903281 -0.08487733 -0.027394839 0.09676571 0.14115755 -0.033611324
0.055025388 0.11316706 -0.024307622 0.074825294 0.18049155 0.032656386 -0.13784 0.005232259
0.052786436 -0.11179478 0.04570103 -0.1101851 -0.08427931 -0.10120976 -0.0896005 0.018345807
0.053942468 -0.14359704 -0.17481871 0.14669539 -0.07919552 -0.18395102 0.039351515 0.08159635
0.18064147 -0.25417587 0.11355027 0.033989396 -0.15114123 0.19222014 0.15922773 -0.15480472
0.18735117 0.020611875 -0.07364011 0.01650146 -0.005034105 -0.27272245 -0.042949647 0.031875193
-0.17957374 0.019790838 -0.013045438 0.09053164 0.03025781 -0.105743825 0.041637402 0.05681436
-0.018766731 0.051096357 -0.11383824 0.047659587 0.08799128 -0.01936334 0.024189038 0.16125163
-0.073085554 0.1885914 0.043925136 -0.10250721 0.22986494 0.16832715 -0.03258599 0.11451533
0.35152152 -0.08761379 -0.16198683 0.07660245 -0.08407141 -0.0947072 -0.008463971 -0.016884707
-0.22796468 0.08124177 -0.07053838 -0.50432706 -0.14390849 -0.11205899 -0.10161701 -0.090375625
0.054383118 0.006662858 0.10666167 0.11466699 0.009353598 0.17666829 -0.13326997 -0.31109625
-0.22595425 -0.013826538 -0.19401814 -0.2561032 0.121750675 -0.08714151 -0.26559895 -0.04359887
0.064190485 -0.1409825 -0.08322482 -0.023828814 -0.032213792 -0.080404416 -0.048680678 0.031646
0.07919622 0.19820683 0.117314085 0.014416072 0.27304402 -0.0117385965 0.14271061 -0.0025917888
0.1958003 0.099950425 0.041014027 -0.0040647318 -0.08325524 -0.06734993 0.015808921 0.12345209
0.019608846 0.19556808 -0.21605961 0.012195681 -0.06545971 -0.20238422 0.0440396 -0.13900259
0.06522444 0.059960995 -0.0283182 0.16588959 0.00967575 0.09240973 0.09333162 -0.06790054
-0.02275886 0.15484299 -0.12146179 -0.17246813 -0.07140209 -0.035714954 0.05399533 0.03524868
0.06363864 0.21683535 0.18422867 -0.033377923 0.1225312 -0.07282721 -0.08951974 0.013916941
-0.12701386 -0.017736884 -0.04307964 -0.0545989 0.04357333 0.042592272 -0.15182744 0.1029608
0.018086001 0.09212581 0.13126643 0.082492605 0.04034363 -0.017560288 0.016799353 -0.09651272
0.26239303 0.2602888 -0.046859182 -0.023399387 -0.16221021 -0.018169194 -0.1447579 -0.19454016
0.05730623 0.0061419145 0.13739735 -0.008928607 -0.09039752 -0.00031330335 -0.09971632 -0.115213566
0.049774338 -0.15718903 -0.1701134 -0.04148277 -0.08846997 -0.13539156 0.081653096 -0.008882372
-0.057174392 -0.09403038 -0.121488936 -0.06970217 -0.07060176 0.29859406 0.17528231 0.078874916
0.017280264 0.06938751 0.056124646 0.04717431 0.14933392 -0.069600634 0.23058127 0.15627593
0.0657524 0.05473765 0.21214683 -0.060420856 0.029323194 -0.07156585 -0.08163084 0.067437254
00000000: 7be1 82bd ca61 f7bd b941 9d3d a38f 743d
00000010: 298a 83bd 6155 d6bd 428d 85bd 5bf5 05bd
00000020: 4f4c 08bb 4ea0 10be 1d30 f13b 626c 573e
00000030: 0d2a 7cbe a9ec 0cbb 3d58 8fbb 600c 1cbe
00000040: c815 823d dc77 c23d c57a ed3d 8ba5 093e
00000050: 6b67 66bd 99d9 063e dfdb cc3c 4017 14be
00000060: 5eb6 d1bd 9fd9 1a3e 76b2 1abe 3fee 28bc
00000070: fe3a 883d 203d 2fbe 7083 b23d ec4a 2c3d
00000080: 2f48 b53c c33c ee3d f4db a1bd 2ad4 adbd
00000090: 246b e0bc 1a2d c63d 9b8b 103e 07ac 09bd
000000a0: 4d62 613d 22c4 e73d c720 c7bc 013e 993d
000000b0: c7d2 383e b4c2 053d ee25 0dbe 5f73 ab3b
000000c0: 9736 583d a9f4 e4bd 0131 3b3d baa8 e1bd
000000d0: a29a acbd 1047 cfbd 7880 b7bd f249 963c
000000e0: c7f2 5c3d 1a0b 13be ad03 33be 5137 163e
000000f0: 4331 a2bd a85d 3cbe 0e2f 213d fd1b a73d
00000100: 14fa 383e 5723 82be 0b8d e83d 7738 0b3d
00000110: c4c4 1abe 5bd5 443e 980c 233e 2185 1ebe
00000120: fcd8 3f3e 3cda a83c a0d0 96bd 122e 873c
00000130: 22f5 a4bb 47a2 8bbe f8eb 2fbd 908f 023d
00000140: 2ee2 37be 6520 a23c 88bc 55bc a768 b93d
00000150: 3adf f73c 3890 d8bd fb8b 2a3d 2db6 683d
00000160: b0bc 99bc 6a4a 513d 0624 e9bd b336 433d
00000170: c634 b43d de9f 9ebc 1728 c63c 261f 253e
00000180: e1ad 95bd 1b1e 413e d8ea 333d 4def d1bd
00000190: b761 6b3e f45d 2c3e e378 05bd 0387 ea3d
000001a0: a1fa b33e dc6e b3bd e0df 25be bfe1 9c3d
000001b0: a22d acbd d9f5 c1bd 78ac 0abc cc51 8abc
000001c0: 936f 69be 1662 a63d 6d76 90bd 941b 01bf
000001d0: bf5c 13be 2f7f e5bd 941c d0bd db16 b9bd
000001e0: d5c0 5e3d 1b54 da3b 6f71 da3d 87d6 ea3d
000001f0: d53f 193c 88e8 343e ec77 08be 0248 9fbe
00000200: 8d60 67be b488 62bc b1ac 46be f51f 83be
00000210: 6b58 f93d 3f77 b2bd 96fc 87be bb94 32bd
00000220: 4d76 833d b75d 10be c671 aabd a534 c3bc
00000230: 9cf2 03bd 12ab a4bd 6465 47bd 3c9f 013d
00000240: a131 a23d bbf6 4a3e 5e42 f03d 6331 6c3c
00000250: 6dcc 8b3e 3e53 40bc bb22 123e 00db 29bb
00000260: e07f 483e cfb2 cc3d 53fe 273d 7131 85bb
00000270: b981 aabd c3ee 89bd b681 813c 73d4 fc3d
00000280: bba2 a03c 0043 483e bb3e 5dbe 65d0 473c
00000290: be0f 86bd cf3d 4fbe de62 343d b256 0ebe
000002a0: 6494 853d a999 753d 92fb e7bc f6de 293e
000002b0: 0987 1e3c 5041 bd3d a624 bf3d 700f 8bbd
000002c0: ca70 babc 298f 1e3e f5c0 f8bd 7c9b 30be
000002d0: 423b 92bd d849 12bd 352a 5d3d eb60 103d
000002e0: fa54 823d 160a 5e3e 71a6 3c3e 4ab7 08bd
000002f0: a3f1 fa3d 6f26 95bd 2056 b7bd e203 643c
00000300: ec0f 02be f14c 91bc 4774 30bd 19a3 5fbd
00000310: f379 323d 3c75 2e3d a778 1bbe 1ddd d23d
00000320: 1829 943c 75ac bc3d b56a 063e e2f1 a83d
00000330: 5d3f 253d 98da 8fbc cc9e 893c 76a8 c5bd
00000340: 6158 863e 9344 853e 6aef 3fbd 12b0 bfbc
00000350: 6f1a 26be 90d7 94bc 6a3b 14be 8935 47be
00000360: f0b9 6a3d 1d42 c93b e4b1 0c3e 4b49 12bc
00000370: 5622 b9bd dd42 a4b9 1238 ccbd 17f5 ebbd
00000380: 2de0 4b3d 29f6 20be 3532 2ebe d6e9 29bd
00000390: be2f b5bd 16a4 0abe bd39 a73d 5e87 11bc
000003a0: b22f 6abd 0093 c0bd 31cf f8bd 03c0 8ebd
000003b0: a897 90bd 52e1 983e 357d 333e 2c89 a13d
000003c0: 578f 8d3c 0a1b 8e3d f5e2 653d d939 413d
000003d0: feea 183e c78a 8ebd 7f1d 6c3e cc06 203e
000003e0: 32a9 863d 9634 603d 053d 593e dc7b 77bd
000003f0: 3237 f03c 1e91 92bd 122e a7bd 8b1c 8a3d

layer1.0.bn2.weight f4 [16]
0.6427194 0.40156958 0.6912108 0.91123724 0.39591876 0.7486428 0.38570175 0.31046155
0.3999455 0.7734365 0.645819 0.7249369 0.7839815 0.8506986 0.6776183 0.71882427
00000000: 4289 243f 879a cd3e 31f3 303f d846 693f
00000010: ddb5 ca3e 0ea7 3f3f b37a c53e d1f4 9e3e
00000020: a8c5 cc3e efff 453f 6554 253f 7795 393f
00000030: 03b3 483f 62c7 593f 6578 2d3f de04 383f

layer1.0.bn2.bias f4 [16]
-0.13381423 -0.12786712 -0.07843884 0.027317394 -0.003472761 0.36003533 0.19262606 0.2265784
-0.11871028 -0.048294734 0.1507656 -0.02758369 0.1642361 0.21927714 0.22243196 0.22604215
00000000: 9906 09be 99ef 02be 8ba4 a0bd bac8 df3c
00000010: 4397 63bb 8d56 b83e c43f 453e 2b04 683e
00000020: 601e f3bd b3d0 45bd 4c62 1a3e 31f7 e1bc
00000030: 822d 283e 308a 603e 34c5 633e 9877 673e

layer1.0.bn2.running_mean f4 [16]
-0.4610437 0.5358736 -0.14472191 -0.97866994 -0.22664478 -0.4797511 -0.7510596 -0.22539443
0.6441732 -0.10238611 -0.5813868 0.081125535 0.0270177 -0.6169573 -0.4005102 -0.91396487
00000000: eb0d ecbe 032f 093f fb31 14be 1d8a 7abf
00000010: 9215 68be f0a1 f5be 7145 40bf cccd 66be
00000020: 89e8 243f cfaf d1bd c4d5 14bf 2525 a63d
00000030: 3954 dd3c eaf0 1dbf ac0f cdbe 9af9 69bf

layer1.0.bn2.running_var f4 [16]
0.25593385 0.3153159 0.58736885 0.54893804 0.67631066 0.45884663 0.29771933 0.30741102
0.4414819 0.3152137 0.30144328 0.35504895 0.24911104 0.7676917 0.61774194 0.58383673
00000000: c309 833e 1671 a13e ce5d 163f 3487 0c3f
00000010: b222 2d3f f2ed ea3e ab6e 983e fa64 9d3e
00000020: ea09 e23e b163 a13e c656 9a3e fac8 b53e
00000030: f716 7f3e 7187 443f 5624 1e3f 5376 153f

layer1.1.conv1.weight f4 [16, 16, 3, 3]
0.0056037433 -0.057978854 0.03463965 0.12293687 -0.032754447 -0.06265351 0.07986854 0.12538812
0.024228944 0.10268103 0.15259147 0.19322795 0.1730082 0.13722582 0.04933749 -0.35066128
-0.3186063 -0.17412569 -0.026937775 0.040890895 -0.06300261 -0.06017829 -0.17951432 -0.31155428
0.091906495 0.21703556 0.19407433 0.03394429 0.06995331 0.06093505 0.025530547 -0.17208467
-0.01942781 0.05058022 0.071143545 0.022689028 -0.010593994 -0.1444612 -0.0642086 -0.075423606
-0.101763226 -0.07005579 -0.09661464 -0.012804861 0.031899158 0.13678339 0.028269405 -0.105699256
-0.23217434 -0.10508981 0.09262231 0.16098471 0.00090551196 -0.08581216 0.017370334 0.094917506
-0.0055993907 -0.12117969 -0.09977024 0.0017821742 0.07643879 0.0068356176 -0.039600264 -0.11942886
-0.09582216 -0.057385128 0.02647711 0.06990629 0.096220724 0.037219293 0.046128605 0.1383959
0.02422837 -0.028051328 -0.03172285 0.028103972 0.08342893 -0.13569494 -0.16677676 -0.06418245
-0.0842762 0.08817644 0.20644386 -0.006934296 -0.16511628 0.01630211 0.08399134 0.109503366
0.049861588 -0.22023147 0.08452546 0.14029905 0.06529207 -0.14514834 -0.12040598 -0.07405371
0.012394788 0.09864227 -0.030063815 0.050961237 0.043986563 0.110350184 -0.082407884 -0.111232996
-0.10961715 -0.07091045 -0.11721519 -0.16983992 -0.15281627 -0.14804535 -0.12994353 -0.0062965197
-0.055305313 0.046205565 -0.011222639 0.095154166 0.0055130864 0.047924243 0.040684193 0.019458847
-0.091734834 0.061881516 0.059044063 -0.0013134559 -0.19453232 -0.028179185 0.085395016 0.059250847
-0.001104112 -0.19891961 -0.008898994 0.016074214 0.13105753 -0.023529349 -0.20661244 0.07491601
0.11219708 0.028658528 -0.016323559 -0.091139615 -0.10930533 0.038689245 0.23247875 0.14578387
-0.090740055 0.07302283 -0.17346312 -0.026708852 -0.088591896 0.064894825 -0.07739408 -0.14345948
0.14633374 0.008363519 -0.14316799 -0.14281279 -0.15923811 -0.012277845 -0.121317394 0.10680264
-0.06789567 0.16778824 -0.12464252 -0.03598434 0.022011943 0.044334546 0.03731504 0.16600609
0.054215036 0.08641373 0.1672661 0.2134784 -0.044054717 0.08025777 -0.03086277 0.08205515
-0.095651634 0.13844588 -0.043805465 -0.13652974 -0.16731912 -0.14367644 -0.055055764 0.06083936
-0.23632781 0.12860622 -0.05686595 -0.06908997 0.16343531 0.14141122 -0.19684453 0.077698365
-0.20237723 -0.035999257 0.13221502 -0.17125978 0.17236952 -0.18554927 0.03648518 -0.07772537
-0.051293742 -0.013071918 -0.024378296 0.021051465 -0.014109689 0.124902144 -0.043374695 0.100702934
0.1233413 -0.013116024 0.113858484 -0.011816844 -0.0374992 -0.023370154 -0.07627582 0.07990362
0.00031899728 -0.16631575 0.054570246 0.092634395 -0.0010850668 0.12112814 -0.08305629 -0.05835584
0.04371039 0.06270976 -0.2665208 0.07023229 0.005796871 -0.069672234 0.13461252 -0.33075508
0.19099541 -0.031690132 0.11648683 0.078822866 -0.09903907 -0.09838815 0.001689465 -0.14138454
-0.11751063 -0.11950241 -0.24506018 -0.08721341 -0.0730435 -0.095583856 -0.108779445 -0.057534117
0.05337888 -0.06430692 -0.09170106 -0.044895347 -0.028253347 -0.07134549 0.05417775 -0.1166682
00000000: 9b9f b73b 3c7b 6dbd 4ee2 0d3d 53c6 fb3d
00000010: 8729 06bd 7c50 80bd 1e92 a33d be65 003e
00000020: c77b c63c 6f4a d23d f040 1c3e 8cdd 453e
00000030: 1029 313e ed84 0c3e 1c16 4a3d e089 b3be
00000040: 5d20 a3be 014e 32be 9cac dcbc 367d 273d
00000050: 8307 81bd 837d 76bd 9ad2 37be 0b84 9fbe
00000060: 7939 bc3d 923e 5e3e 6cbb 463e 2b09 0b3d
00000070: ae43 8f3d 0897 793d 7025 d13c f736 30be
00000080: 1227 9fbc 342d 4f3d b5b3 913d 57de b93c
00000090: 6e92 2dbc a3ed 13be cc7f 83bd b177 9abd
000000a0: 3d69 d0bd 6979 8fbd e5dd c5bd 7bcb 51bc
000000b0: b1a8 023d f210 0c3e 3d95 e73c da78 d8bd
000000c0: 1cbf 6dbe 5439 d7bd c4b0 bd3d 2dd9 243e
000000d0: e15f 6d3a 49be afbd 3b4c 8e3c 1c64 c23d
000000e0: 187b b7bb 0f2d f8bd 5754 ccbd d897 e93a
000000f0: f18b 9c3d 51fd df3b e333 22bd 1e97 f4bd
00000100: 693e c4bd ab0c 6bbd 86e6 d83c 072b 8f3d
00000110: 5f0f c53d 4273 183d 59f1 3c3d a8b7 0d3e
00000120: 937a c63c e6cb e5bc d2ef 01bd 4d3a e63c
00000130: c9dc aa3d 9df3 0abe 87c7 2abe 1772 83bd
00000140: 0099 acbd d995 b43d 0566 533e 1739 e3bb
00000150: 3e14 29be 018c 853c a703 ac3d 4d43 e03d
00000160: aa3b 4c3d 5c84 61be af1b ad3d 8eaa 0f3e
00000170: d9b7 853d c4a1 14be 6997 f6bd 79a9 97bd
00000180: 8213 4b3c f504 ca3d 6448 f6bc bbbc 503d
00000190: 412b 343d 47ff e13d 77c5 a8bd 20ce e3bd
000001a0: f57e e0bd 7f39 91bd 840e f0bd 84ea 2dbe
000001b0: de7b 1cbe 3399 17be eb0f 05be 0953 cebb
000001c0: d387 62bd 0c42 3d3d 29df 37bc 30e0 c23d
000001d0: 1fa7 b43b 364c 443d 78a4 263d 2968 9f3c
000001e0: 79df bbbd 7977 7d3d 30d8 713d 4428 acba
000001f0: 7b33 47be 09d8 e6bc 95e3 ae3d 04b1 723d
00000200: dab7 90ba 95b1 4bbe 16cd 11bc 12ae 833c
00000210: f233 063e 9fc0 c0bc 3692 53be 916d 993d
00000220: 95c7 e53d 4ac5 ea3c fcb8 85bc 68a7 babd
00000230: 79db dfbd 9d78 1e3d e90e 6e3e 5e48 153e
00000240: ecd5 b9bd fe8c 953d 51a0 31be 86cc dabc
00000250: ab6f b5bd 94e7 843d ca80 9ebd 0be7 12be
00000260: 83d8 153e 2407 093c a19a 12be 843d 12be
00000270: 510f 23be 0429 49bc 4175 f8bd 58bb da3d
00000280: e30c 8bbd aed0 2b3e 9444 ffbd 5164 13bd
00000290: 6452 b43c 2498 353d a8d7 183d 80fd 293e
000002a0: 9610 5e3d aff9 b03d ce47 2b3e 159a 5a3e
000002b0: b872 34bd 305e a43d ebd3 fcbc 880c a83d
000002c0: 01e5 c3bd c2c4 0d3e 5c6d 33bd 74ce 0bbe
000002d0: b455 2bbe eb1f 13be 2782 61bd b132 793d
000002e0: ebff 71be 59b1 033e 45ec 68bd 0b7f 8dbd
000002f0: 965b 273e 1ace 103e 9d91 49be 5220 9f3d
00000300: fa3b 4fbe f573 13bd 6063 073e b95e 2fbe
00000310: a381 303e a100 3ebe 7c71 153d 7b2e 9fbd
00000320: 6319 52bd 992b 56bc feb4 c7bc 1f74 ac3c
00000330: 532c 67bc b2cc ff3d aaa9 31bd 573d ce3d
00000340: 5d9a fc3d 98e4 56bc a32e e93d 709b 41bc
00000350: c398 19bd c472 bfbc 7f36 9cbd 82a4 a33d
00000360: 173f a739 ad4e 2abe 0d85 5f3d 1ab7 bd3d
00000370: cd38 8eba 0812 f83d 6b19 aabd 8906 6fbd
00000380: aa09 333d fa6d 803d 6a75 88be f2d5 8f3d
00000390: aef3 bd3b 51b0 8ebd ddd7 093e bb58 a9be
000003a0: 4d94 433e 83cd 01bd a690 ee3d e26d a13d
000003b0: ffd4 cabd ba7f c9bd 0a71 dd3a 1cc7 10be
000003c0: 6aa9 f0bd aebd f4bd 0ef1 7abe f29c b2bd
000003d0: d597 95bd 78c1 c3bd c2c7 debd e5a8 6bbd
000003e0: d0a3 5a3d 59b3 83bd c4cd bbbd 2fe4 37bd
000003f0: 9073 e7bc 961d 92bd 7de9 5d3d bdef eebd

layer1.1.bn1.weight f4 [16]
0.63636017 0.48277232 0.5485842 0.8999056 0.67360556 1.013707 0.617534 0.59450865
0.34876335 0.3635729 0.8049304 0.36612454 0.31018656 0.46232465 0.4702777 0.8816314
00000000: 80e8 223f ef2d f73e 0470 0c3f 3760 663f
00000010: 6a71 2c3f 27c1 813f b516 1e3f b831 183f
00000020: 1c91 b23e 3a26 ba3e eb0f 4e3f ad74 bb3e
00000030: c6d0 9e3e d1b5 ec3e 3dc8 f03e 98b2 613f

layer1.1.bn1.bias f4 [16]
-0.13137135 -0.08051257 -0.14097442 -0.097175375 -0.2099292 0.28783634 -0.13662523 0.036813512
-0.08114933 -0.09104015 -0.093961276 -0.05349722 -0.1278989 -0.09215149 -0.07416115 -0.029424235
00000000: 3686 06be c6e3 a4bd 995b 10be e203 c7bd
00000010: aef7 56be 495f 933e 7ce7 0bbe c4c9 163d
00000020: 9f31 a6bd 4273 babd c56e c0bd e71f 5bbd
00000030: eef7 02be ecb9 bcbd cde1 97bd 180b f1bc

layer1.1.bn1.running_mean f4 [16]
-0.42589614 -0.66154003 -0.67959785 0.07494263 -1.0258136 -0.5747471 -1.6066948 -1.3564426
-0.4119602 0.056139164 -0.6879336 -0.12151262 0.84133345 -0.18572938 1.5163162 -1.9303643
00000000: 0f0f dabe b05a 29bf 20fa 2dbf 867b 993d
00000010: dc4d 83bf a022 13bf 2da8 cdbf e99f adbf
00000020: 73ec d2be 2ef2 653d 6b1c 30bf 9cdb f8bd
00000030: a161 573f d82f 3ebe a616 c23f 2d16 f7bf

layer1.1.bn1.running_var f4 [16]
1.5161052 0.8564932 1.2399977 2.5832047 0.91352147 1.6728363 2.0086284 1.3190157
0.7963869 1.094196 1.3107371 1.8390102 0.5753724 0.7465905 0.96363705 1.979296
00000000: bc0f c23f 2343 5b3f 3fb8 9e3f 3a53 2540
00000010: 8bdc 693f 801f d63f 5e8d 0040 82d5 a83f
00000020: 03e0 4b3f 9d0e 8c3f 3cc6 a73f b064 eb3f
00000030: 9b4b 133f 8e20 3f3f ebb0 763f 9259 fd3f

layer1.1.conv2.weight f4 [16, 16, 3, 3]
0.040877298 -0.15456788 -0.14583082 -0.13280366 -0.20532903 -0.07435676 -0.20332773 -0.24244471
-0.07332335 -0.045453798 0.060950194 -0.04122799 -0.08376849 -0.01687484 0.074609384 -0.061880358
-0.0664421 0.030911598 0.012920697 0.0044995607 -0.15908 0.05864647 0.10761564 -0.14679739
0.23498508 0.01483079 0.04969599 -0.025398262 -0.13831335 -0.16387244 -0.034395095 -0.26546797
-0.30896783 -0.19589217 -0.06640749 -0.06086422 0.041219514 0.12178395 0.051163733 0.024537431
-0.0868536 0.019712655 0.10658292 0.14048043 -0.03934506 0.07993747 0.0110070305 0.0860715
0.090547115 -0.028474849 -0.070443526 0.013973611 0.09887176 -0.058210827 -0.045928203 -0.008374244
-0.0946773 0.027297566 0.09044532 0.02042221 0.10985751 -0.0132149365 0.10690676 -0.050943192
-0.046279017 -0.08567945 -0.04259123 0.008181786 -0.054410018 0.23658907 0.18413708 0.03113176
-0.09178383 -0.17177196 -0.12923805 -0.12079056 -0.23929434 -0.076669596 0.08086058 -0.25364617
-0.15600973 0.11989492 0.03678037 0.10781697 0.1208292 0.0020396593 0.033089984 0.24449193
0.24927624 0.12939662 -0.25088894 -0.20386769 -0.16839075 -0.17038922 -0.3776632 -0.14704221
-0.03261718 -0.19646768 -0.1017373 0.02917721 0.09876212 -0.08543342 0.057771552 0.22509211
-0.06037353 0.06268632 0.18137999 0.093969375 0.021446386 0.1471781 0.1058971 -0.014779103
-0.071523204 0.07962614 0.009463338 -0.12940586 -0.13439389 -0.05830472 0.010869803 0.037757758
-0.07775934 0.010190606 -0.0039775623 -0.07832375 0.05630636 -0.00089777284 0.030561076 0.01847403
0.03180884 0.019090762 0.14952162 -0.046706032 -0.11909027 0.035443142 -0.16885094 -0.045005318
0.036135245 0.05110913 -0.13692273 0.1323856 0.085068755 -0.08054898 0.07595345 0.13391286
0.037222825 -0.09527438 -0.16830836 0.15823205 -0.047714878 -0.097250514 -0.108980596 -0.026758635
-0.003590325 0.010307923 -0.20596083 -0.0316746 -0.06454999 -0.059775017 -0.03574746 -0.029405858
0.16319516 0.07293909 0.08821697 0.17067878 0.023995986 0.18847603 0.15249586 0.245399
0.17565788 0.23215409 0.1965071 -0.13675497 -0.038058687 -0.17723387 -0.25001487 -0.15032864
-0.15971667 -0.09548709 -0.16304624 -0.16135739 0.0852352 0.029840639 -0.170539 0.09641987
-0.027495464 -0.084995486 -0.03586764 0.007604708 0.08775669 -0.043651987 0.11906117 -0.0133503005
0.011611051 0.056112774 0.013193346 -0.070365176 -0.00402471 0.06856522 -0.17335205 -0.06588983
-0.021156058 -0.23875876 -0.12807842 0.028865255 -0.16478394 -0.045505542 -0.020088451 0.071906656
0.08346929 -0.044377305 0.1029348 0.14711545 -0.050955415 -0.08264619 -0.017024335 0.011071211
0.17580582 0.2475172 -0.09499005 0.3742109 0.32867572 0.11611796 0.34312952 0.27054164
0.08149875 -0.0998766 -0.10639662 -0.16637892 0.013851749 -0.09797427 -0.080981 -0.06503397
-0.020579267 -0.08246066 0.105188444 0.088408545 -0.01056356 0.14733753 0.10009225 -0.026481174
0.010081231 0.06890804 -0.13139012 -0.058030024 -0.01476752 -0.11368856 -0.17006063 -0.27524793
-0.22820468 -0.18891683 -0.25923255 -0.19593933 -0.11534462 -0.0062217913 -0.012905461 0.09910586
00000000: f46e 273d 0b47 1ebe ad54 15be affd 07be
00000010: c641 52be 5b48 98bd 2535 50be 6d43 78be
00000020: 8d2a 96bd c32d 3abd e9a6 793d aede 28bd
00000030: d08e abbd 1b3d 8abc cecc 983d 4276 7dbd
00000040: cc12 88bd 523a fd3c 55b1 533c 0d71 933b
00000050: dee5 22be 4837 703d 9765 dc3d 0e52 16be
00000060: ee9f 703e d8fc 723c 068e 4b3d 0410 d0bc
00000070: 04a2 0dbe 2dce 27be dfe1 0cbd 6beb 87be
00000080: 0831 9ebe f597 48be a600 88bd c34c 79bd
00000090: cbd5 283d dd69 f93d 1091 513d b902 c93c
000000a0: 4de0 b1bd 6f7c a13c 2548 da3d 1ada 0f3e
000000b0: 4928 21bd 42b6 a33d d556 343c 4146 b03d
000000c0: c470 b93d 1644 e9bc b244 90bd 93f1 643c
000000d0: 477d ca3d 7a6e 6ebd 361f 3cbd 2034 09bc
000000e0: 2ce6 c1bd 259f df3c 653b b93d 7b4c a73c
000000f0: f9fc e03d 7683 58bc eef1 da3d cfa9 50bd
00000100: 118f 3dbd b578 afbd 2474 2ebd e60c 063c
00000110: 0add 5ebd 6844 723e 6e8e 3c3e 0808 ff3c
00000120: 29f9 bbbd fde4 2fbe fb56 04be 0b61 f7bd
00000130: 9309 75be f304 9dbd 3b9a a53d e9dd 81be
00000140: 04c1 1fbe 788b f53d 03a7 163d 25cf dc3d
00000150: 4d75 f73d ceab 053b 5d89 073d 185c 7a3e
00000160: 4542 7f3e 8c80 043e 8474 80be b1c2 50be
00000170: a06e 2cbe 837a 2ebe 125d c1be 3c92 16be
00000180: 9899 05bd d32e 49be a55b d0bd 0b05 ef3c
00000190: cb43 ca3d b8f7 aebd dda1 6c3d 8c7e 663e
000001a0: 3c4a 77bd af61 803d adbb 393e 0473 c03d
000001b0: 55b0 af3c dbb5 163e 94e0 d83d 0d24 72bc
000001c0: c27a 92bd 0813 a33d 1e0c 1b3c f882 04be
000001d0: 8d9e 09be eed0 6ebd 4217 323c e1a7 1a3d
000001e0: 4a40 9fbd 80f6 263c 3656 82bb 3468 a0bd
000001f0: 7fa1 663d 8458 6bba 395b fa3c d956 973c
00000200: fc49 023d 3b64 9c3c 321c 193e d34e 3fbd
00000210: 99e5 f3bd d42c 113d 43e7 2cbe 7f57 38bd
00000220: 8d02 143d cf57 513d 7935 0cbe 1790 073e
00000230: 8738 ae3d ddf6 a4bd 7b8d 9b3d 7420 093e
00000240: f676 183d 371f c3bd 0759 2cbe 9507 223e
00000250: ad70 43bd 472b c7bd 3831 dfbd ed34 dbbc
00000260: a84b 6bbb 90e2 283c 65e7 52be 3abd 01bd
00000270: c932 84bd a6d6 74bd ee6b 12bd 8ee4 f0bc
00000280: a21c 273e 1761 953d 19ab b43d 6bc6 2e3e
00000290: 3b93 c43c dcff 403e e027 1c3e e049 7b3e
000002a0: a9df 333e cdb9 6d3e 2839 493e 7f09 0cbe
000002b0: 6de3 1bbd cc7c 35be f301 80be c0ef 19be
000002c0: c48c 23be bc8e c3bd 98f5 26be df3a 25be
000002d0: cb8f ae3d 5b74 f43c c7a1 2ebe c877 c53d
000002e0: 2b3e e1bc 1d12 aebd f2e9 12bd ea30 f93b
000002f0: c8b9 b33d 6dcc 32bd 58d6 f33d 38bb 5abc
00000300: 473c 3e3c 82d6 653d e728 583c 9e1b 90bd
00000310: b7e1 83bb ec6b 8c3d 3383 31be 3ff1 86bd
00000320: 784f adbc 2d7d 74be fd26 03be d476 ec3c
00000330: 1fbd 28be 0564 3abd 8990 a4bc cc43 933d
00000340: f2f1 aa3d fac4 35bd 7bcf d23d 6fa5 163e
00000350: a0b6 50bd 6842 a9bd 9e76 8bbc 0664 353c
00000360: 7106 343e 2675 7d3e 258a c2bd 9298 bf3e
00000370: 2f48 a83e 41cf ed3d acae af3e 6f84 8a3e
00000380: d1e8 a63d 1a8c ccbd 79e6 d9bd 3c5f 2abe
00000390: 72f2 623c bca6 c8bd 5ed9 a5bd 8830 85bd
000003a0: da95 a8bc 22e1 a8bd 0a6d d73d 8a0f b53d
000003b0: c812 2dbc a6df 163e 2afd cc3d 0cef d8bc
000003c0: bf2b 253c a91f 8d3d 228b 06be e4b0 6dbd
000003d0: 78f3 71bc 8cd5 e8bd 6024 2ebe 4ced 8cbe
000003e0: 7dae 69be 6a73 41be 21ba 84be 52a4 48be
000003f0: cd39 ecbd 2be0 cbbb 6d71 53bc 03f8 ca3d

layer1.1.bn2.weight f4 [16]
0.8885397 0.47782394 0.757988 0.73327786 0.9456464 0.4202062 0.3410557 0.7830947
0.45008495 0.672437 0.4858952 0.51232666 0.19775479 0.2070988 0.3993951 0.6953802
00000000: 5677 633f 57a5 f43e 800b 423f 19b8 3b3f
00000010: e215 723f 4425 d73e da9e ae3e e578 483f
00000020: 8971 e63e d524 2c3f 41c7 f83e d727 033f
00000030: 3b80 4a3e b511 543e 847d cc3e 7004 323f

layer1.1.bn2.bias f4 [16]
-0.040619403 0.07826528 -0.044388723 0.17165202 -0.18928067 -0.15825422 -0.10349427 0.005907674
-0.032068532 0.11694338 -0.14183274 -0.015862776 0.0008008257 0.23591226 -0.30042222 0.0048046433
00000000: 8860 26bd 8c49 a03d f3d0 35bd 8cc5 2f3e
00000010: cbd2 41be 650d 22be cef4 d3bd 2995 c13b
00000020: 4b5a 03bd 0380 ef3d 9a3c 11be a7f2 81bc
00000030: 81ee 513a fc92 713e f1d0 99be 4570 9d3b

layer1.1.bn2.running_mean f4 [16]
-0.49286404 -0.0748987 0.3001248 -0.35799035 -0.088347174 0.3396326 0.044320192 -0.95530516
0.19571184 -0.3754182 0.48658538 -0.2771946 0.67012805 0.11410374 -0.67377436 -0.11974264
00000000: ad58 fcbe 7d64 99bd f5a9 993e 834a b7be
00000010: 5def b4bd 53e4 ad3e 1789 353d e18e 74bf
00000020: af68 483e d036 c0be b821 f93e 73ec 8dbe
00000030: 838d 2b3f 39af e93d 7a7c 2cbf a13b f5bd

layer1.1.bn2.running_var f4 [16]
0.5813397 0.32281053 0.3991572 0.47554588 0.97481024 0.47512355 0.47640482 0.3767838
0.29607207 0.2562293 0.36539644 0.2598985 0.30178308 0.35164356 0.3896487 0.31347114
00000000: aed2 143f 6c47 a53e 555e cc3e c07a f33e
00000010: 2a8d 793f 6543 f33e 55eb f33e cee9 c03e
00000020: c296 973e 7d30 833e 3e15 bb3e 6b11 853e
00000030: 5083 9a3e a00a b43e 0980 c73e 4a7f a03e

layer2.0.conv1.weight f4 [32, 16, 3, 3]
-0.019697824 0.037076857 0.0757403 -0.008549405 -0.11720467 -0.055113286 -0.052562144 -0.03486704
-0.015414124 0.03307321 0.00571783 0.106238835 -0.082335584 -0.044188283 -0.041469965 0.005729394
-0.116339654 -0.11035775 -0.021152161 0.03435571 0.12430801 0.039616995 0.10092783 0.038516585
0.105824776 -0.0086520715 -0.014122604 -0.13218264 -0.16378812 -0.19619417 0.01667328 -0.05194925
-0.10890651 0.1286284 0.10930405 0.05484024 0.22414008 0.23444289 0.08596176 0.09640161
0.08373309 0.05061931 -0.06733282 -0.092673354 0.051080637 -0.18372083 -0.028812103 0.090748586
-0.2450921 -0.07414678 -0.04745043 0.021667045 0.0017001884 -0.053455908 -0.0011440577 0.047352873
0.15060739 0.042740215 0.09065154 0.21060969 0.07689987 0.11419202 0.16729037 -0.13703994
-0.14230913 -0.09611424 -0.017379379 0.01587342 -0.033058006 0.14046969 0.12223844 0.121019326
-0.06340146 -0.036210425 -0.070526436 -0.023815822 0.12303395 0.05229218 0.056065533 0.13315988
0.044226564 -0.0599478 -0.051812988 -0.08699916 -0.231162 -0.16542402 -0.083578914 -0.10012891
-0.24730508 -0.21695454 -0.05836556 0.041200325 0.018631008 -0.038982946 -0.060422316 -0.1337907
-0.10631475 -0.12339323 -0.17526218 0.0684251 -0.07186646 -0.03996001 -0.07595422 -0.10161643
-0.108274065 -0.14865701 -0.12081831 -0.12364671 0.022500707 0.01674912 -0.073493905 0.16750544
0.2184766 0.11614329 -0.06807392 0.08642419 0.23846993 -0.08365874 0.052384358 0.18194185
-0.21928439 -0.07770415 0.016735919 -0.2608325 -0.21642731 -0.10207228 0.097937256 0.11536885
0.15626507 -0.03157921 -0.0038975684 0.027934678 -0.060620647 -0.11666135 -0.11015541 -0.034270454
0.040544596 0.07335871 -0.10105316 -0.1226323 -0.118018456 0.07434803 0.10609183 -0.048851814
-0.03848238 -0.04242591 -0.21091105 -0.141384 0.08285064 -0.1254538 0.13028394 0.14740327
0.023773821 0.040525932 -0.015499075 -0.010882669 -0.22932394 -0.43354937 -0.40628132 -0.15239893
-0.24053846 -0.08935561 0.0080423 -0.010437189 0.03102171 0.04748143 0.0641693 -0.015117611
0.034893695 0.030275615 -0.11870163 -0.116554305 0.049993318 0.053634312 -0.16961522 0.017846795
-0.0187506 -0.2172466 -0.08562249 -0.115359485 0.18069766 0.0232414 0.09860126 0.13271235
-0.06097853 0.023384692 0.0065878564 -0.10990136 -0.10677622 -0.050276026 -0.17113622 -0.061647568
0.09006361 0.071172565 0.0825354 0.047732674 -0.078618996 -0.029184483 -0.01815814 0.03637195
0.094566606 -0.07043853 -0.078267224 -0.11628235 -0.066337004 0.06327473 0.028804377 -0.28313607
0.012912014 0.026232338 -0.08728714 0.23303066 0.14673884 -0.02878409 0.101679526 0.097512044
-0.20642489 -0.039867193 0.09110912 -0.086531855 0.06576855 0.058395155 -0.11921299 0.031591408
0.017903281 -0.14855385 -0.16774085 0.027119284 -0.19897924 -0.07354992 -0.00765565 -0.112503655
-0.0560505 -0.059230745 -0.015036612 -0.11093238 -0.18379644 -0.075102285 -0.11590495 -0.10615877
-0.18522397 -0.21940687 -0.19459108 -0.09910581 0.101191245 0.04715988 -0.09687814 -0.037782915
0.00057090586 -0.051776346 -0.033345364 -0.010406218 0.07801146 -0.14694092 -0.121714994 -0.06552497
00000000: 555d a1bc e7dd 173d bb1d 9b3d ce12 0cbc
00000010: 0109 f0bd 78be 61bd 674b 57bd bed0 0ebd
00000020: 868b 7cbc c677 073d a25c bb3b bf93 d93d
00000030: 8f9f a8bd c6fe 34bd 69dc 29bd a4bd bb3b
00000040: 7c43 eebd 3e03 e2bd 4c47 adbc 93b8 0c3d
00000050: 3395 fe3d 6e45 223d 40b3 ce3d 91c3 1d3d
00000060: a9ba d83d 6bc1 0dbc 7f62 67bc e35a 07be
00000070: 13b8 27be 20e7 48be 6796 883c bdc8 54bd
00000080: 600a dfbd 2ab7 033e cdda df3d 29a0 603d
00000090: fa84 653e cc11 703e b80c b03d 356e c53d
000000a0: 417c ab3d 3256 4f3d cae5 89bd 87cb bdbd
000000b0: ee39 513d 5021 3cbe 5c07 ecbc 65da b93d
000000c0: 6cf9 7abe 44da 97bd 625b 42bd 167f b13c
000000d0: dbd8 de3a 95f4 5abd 35f4 95ba 16f5 413d
000000e0: d338 1a3e 5d10 2f3d 84a7 b93d 11aa 573e
000000f0: ae7d 9d3d 81dd e93d 2b4e 2b3e 3354 0cbe
00000100: 7cb9 11be 8bd7 c4bd 335f 8ebc f908 823c
00000110: d567 07bd 49d7 0f3e 2658 fa3d fbd8 f73d
00000120: a0d8 81bd 6251 14bd 2a70 90bd 6619 c3bc
00000130: 39f9 fb3d 5330 563d f9a4 653d 105b 083e
00000140: ea26 353d d38b 75bd db39 54bd 9e2c b2bd
00000150: bbb5 6cbe ea64 29be 6c2b abbd 6310 cdbd
00000160: 8b3d 7dbe 5529 5ebe ba10 6fbd acc1 283d
00000170: 0ea0 983c 95ac 1fbd 647d 77bd 6e00 09be
00000180: 8cbb d9bd 97b5 fcbd ee77 33be 7522 8c3d
00000190: b92e 93bd 1cad 23bd e38d 9bbd 461c d0bd
000001a0: cbbe ddbd 8b39 18be 976f f7bd 7c3a fdbd
000001b0: 6753 b83c 7335 893c f983 96bd 8c86 2b3e
000001c0: 54b8 5f3e 89dc ed3d 576a 8bbd 2aff b03d
000001d0: 7631 743e 4655 abbd fb90 563d f74e 3a3e
000001e0: 168c 60be 5a23 9fbd c419 893c d68b 85be
000001f0: 1f9f 5dbe 460b d1bd 5493 c83d 8146 ec3d
00000200: f303 203e 3459 01bd 596e 7fbb 44d7 e43c
00000210: 5b4d 78bd 25ec eebd 2999 e1bd 2d5f 0cbd
00000220: 1712 263d 173d 963d f6f4 cebd a526 fbbd
00000230: a9b3 f1bd c843 983d ac46 d93d d718 48bd
00000240: b39f 1dbd cac6 2dbd 11f9 57be f8c6 10be
00000250: 99ad a93d f676 00be 2769 053e e2f0 163e
00000260: 51c1 c23c 85fe 253d d5ef 7dbc 394d 32bc
00000270: e5d3 6abe 2ffa ddbe 1b04 d0be 770e 1cbe
00000280: b74f 76be 1300 b7bd dac3 033c be00 2bbc
00000290: 3e21 fe3c e37b 423d 326b 833d dbaf 77bc
000002a0: b1ec 0e3d 9104 f83c d719 f3bd 06b4 eebd
000002b0: cbc5 4c3d a7af 5b3d 9daf 2dbe 7133 923c
000002c0: dc9a 99bc e575 5ebe d85a afbd 9841 ecbd
000002d0: cf08 393e c064 be3c 75ef c93d bfe5 073e
000002e0: a0c4 79bd 4191 bf3c f2de d73b f713 e1bd
000002f0: 7ead dabd 3cee 4dbd 553e 2fbe 2982 7cbd
00000300: 4573 b83d ecc2 913d 5208 a93d 5683 433d
00000310: ff02 a1bd 4c14 efbc 61c0 94bc c1fa 143d
00000320: 23ac c13d 1342 90bd 914a a0bd 7125 eebd
00000330: b2db 87bd 2f96 813d 28f7 eb3c 36f7 90be
00000340: e98c 533c 33e5 d63c 9ac3 b2bd 979f 6e3e
00000350: b542 163e 9dcc ebbc 5b3d d03d 65b4 c73d
00000360: 0c61 53be c84b 23bd 6b97 ba3d 9d37 b1bd
00000370: a9b1 863d c22f 6f3d f125 f4bd fe65 013d
00000380: e7a9 923c 801e 18be 42c4 2bbe 4329 de3c
00000390: 37c1 4bbe 57a1 96bd 3fdc fabb 5168 e6bd
000003a0: 3695 65bd f09b 72bd 1f5c 76bc 8430 e3bd
000003b0: 2235 3cbe 3acf 99bd 935f edbd c569 d9bd
000003c0: 5aab 3dbe 32ac 60be e242 47be fdf7 cabd
000003d0: 5b3d cf3d b82a 413d 0c68 c6bd 42c2 1abd
000003e0: d8a8 153a 6f13 54bd 2695 08bd d77e 2abc
000003f0: 79c4 9f3d ae77 16be b645 f9bd f531 86bd

layer2.0.bn1.weight f4 [32]
0.47011733 0.41664198 0.340136 0.384981 0.43811777 0.30313647 0.58711255 0.43925792
0.4236756 0.3136231 0.6132251 0.33726206 0.70211625 0.60096425 0.25940698 0.4641
0.5378315 0.28440672 0.45557874 0.3990168 0.5815938 0.63836133 0.58378744 0.63761514
0.5041502 0.45173982 0.8168302 0.48714787 0.66890943 0.29268095 0.26043618 0.36559856
00000000: 38b3 f03e 1952 d53e 4e26 ae3e 3b1c c53e
00000010: f950 e03e b434 9b3e 024d 163f 6ae6 e03e
00000020: 02ec d83e 3593 a03e 52fc 1c3f 9dad ac3e
00000030: e4bd 333f cbd8 193f fed0 843e 849e ed3e
00000040: 53af 093f c29d 913e 9e41 e93e ee4b cc3e
00000050: 55e3 143f a66b 233f 1873 153f bf3a 233f
00000060: fd0f 013f 714a e73e c91b 513f 726b f93e
00000070: a63d 2b3f 47da 953e e457 853e bc2f bb3e

layer2.0.bn1.bias f4 [32]
-0.14505014 -0.05237562 -0.09140174 -0.04548262 -0.10476979 -0.017576974 -0.14356858 0.05551366
0.11585362 -0.08600391 -0.17369331 -0.0108465105 -0.119085684 -0.04862627 -0.048212074 -0.04369919
-0.12175544 -0.026775971 -0.121209234 0.04770361 -0.024835061 -0.15128882 -0.05497925 -0.28428575
-0.02390061 -0.04473395 -0.105241716 -0.1683131 -0.0073438864 -0.101509936 -0.17137696 -0.08916564
00000000: 0688 14be d187 56bd d630 bbbd fc4b 3abd
00000010: 8b91 d6bd 96fd 8fbc a403 13be 4b62 633d
00000020: aa44 ed3d d122 b0bd a9dc 31be 90b5 31bc
00000030: 32e3 f3bd 572c 47bd 067a 45bd ecfd 32bd
00000040: eb5a f9bd 4859 dbbc 8c3c f8bd dc64 433d
00000050: e672 cbbc 75eb 1abe ec31 61bd e78d 91be
00000060: 36cb c3bc f23a 37bd f888 d7bd 455a 2cbe
00000070: fca4 f0bb 71e4 cfbd 717d 2fbe 7a9c b6bd

layer2.0.bn1.running_mean f4 [32]
-1.2221274 -2.4035985 1.077812 -0.88762826 -1.4377762 -0.85908824 2.0402057 1.163334
-3.2380283 -1.2554535 -1.3193753 1.3268596 -1.4863864 -1.162328 -1.9125956 -0.5321202
0.4418853 0.7456342 0.54151237 0.06661754 0.20818812 -3.9498594 0.0005815608 0.08824865
-2.5605173 -1.9084802 0.58817005 1.2524544 -2.9480164 0.3648469 2.9508321 -0.8166278
00000000: ac6e 9cbf 8fd4 19c0 bef5 893f 9b3b 63bf
00000010: 0d09 b8bf 35ed 5bbf bb92 0240 21e8 943f
00000020: db3b 4fc0 b3b2 a0bf 4ae1 a8bf 89d6 a93f
00000030: e941 bebf 2ac7 94bf efcf f4bf 0839 08bf
00000040: ca3e e23e e2e1 3e3f 8ea0 0a3f c76e 883d
00000050: 442f 553e 7fca 7cc0 e273 183a b5bb b43d
00000060: 84df 23c0 1449 f4bf 5092 163f 6d50 a03f
00000070: 4dac 3cc0 36cd ba3e 6fda 3c40 850e 51bf

layer2.0.bn1.running_var f4 [32]
1.2523851 1.4112586 2.057236 1.6759354 1.9763731 1.9005164 1.683969 2.0978131
2.388671 2.1609204 1.7531638 1.9434834 2.1521404 2.3549137 1.2717469 1.3137748
1.2156024 2.5711293 1.6314536 1.5784522 1.6564496 1.7815272 2.121104 1.7844539
1.3743149 2.334956 2.6156425 1.1191053 2.4016073 1.816219 1.6028898 1.1290985
00000000: 284e a03f 1fa4 b43f c1a9 0340 0d85 d63f
00000010: cbf9 fc3f 1f44 f33f 4c8c d73f 9242 0640
00000020: fcdf 1840 854c 0a40 ac67 e03f 10c4 f83f
00000030: abbc 0940 e8b6 1640 9ac8 a23f c629 a83f
00000040: dc98 9b3f 628d 2440 79d3 d03f b90a ca3f
00000050: 8a06 d43f 1509 e43f 2bc0 0740 fc68 e43f
00000060: 8de9 af3f eb6f 1540 b066 2740 d83e 8f3f
00000070: efb3 1940 dd79 e83f 7e2b cd3f 4d86 903f
